pytorch_testing/models/CNN_model.pth (torch, 34836 bytes, 10 tensors)

conv_block_1.0.weight f4 [10, 1, 3, 3]
0	0x3e842ea4	0.25816834
1	0x3e89d5ca	0.2692092
2	0xbebe454d	-0.37162247
3	0x3e8d7024	0.2762462
4	0x3e478d52	0.19487503
5	0x3d36c17b	0.04461811
6	0xbef273eb	-0.47354063
7	0x3da86da9	0.08224041
8	0x3eb36570	0.35038328
9	0xbec1ca2b	-0.37849554
10	0x3ee793b1	0.45229867
11	0xbca70370	-0.020387381
12	0x3ec01747	0.3751776
13	0x3ed47f96	0.4150359
14	0xbcde1231	-0.027108284
15	0xbc9677f0	-0.018367738
16	0x3ec783ad	0.38967648
17	0xbe171926	-0.14755687
18	0xbedde8d8	-0.43341708
19	0xbdadd485	-0.084878005
20	0xbcd987a1	-0.02655393
21	0xbf39225b	-0.7231805
22	0xbf34f523	-0.7068655
23	0x3e58f633	0.21187668
24	0xbf578de5	-0.8420089
25	0xbf1ec5a0	-0.620203
26	0x3c943214	0.018090285
27	0xbf3d8f70	-0.74046993
28	0xbf617c7e	-0.88080585
29	0xbf0e91a7	-0.55691
30	0x3e80265a	0.2502926
31	0xbf0de2cb	-0.55424184
32	0x3ea7312e	0.3265471
33	0x3e97b1c9	0.29627827
34	0xbd9b31bb	-0.07577845
35	0x3ee48c7f	0.4463844
36	0xbd31b2a4	-0.043383256
37	0x3e84dac0	0.25948143
38	0xbcc4511c	-0.023964457
39	0xbe227397	-0.15864407
40	0x3e611ec6	0.21984395
41	0xbe21ee65	-0.15813597
42	0x3bc08750	0.0058755055
43	0x3e97f785	0.2968103
44	0x3e3a1a47	0.18174087
45	0xbe18accb	-0.14909665
46	0x3e3b4018	0.18286169
47	0x3d65ee50	0.056135476
48	0x3e2d6305	0.16932304
49	0xbe4fc26b	-0.20289008
50	0xbea88695	-0.32915178
51	0xbe0143dc	-0.12623543
52	0xbe83a7ef	-0.2571406
53	0x3e8971d8	0.26844668
54	0x3e5bf49f	0.21480034
55	0x3e466831	0.19375683
56	0xbb4b97c4	-0.00310658
57	0x3d84ff74	0.06494036
58	0x3d8eb343	0.06967785
59	0xbe9467c7	-0.28985426
60	0x3e54753a	0.20747843
61	0xbed470e5	-0.41492382
62	0x3dbbbb72	0.09166612
63	0xbe03ebe5	-0.12882955
64	0x3daac5fe	0.08338545
65	0xbdfce723	-0.12348773
66	0x3ea7463f	0.3267078
67	0xbe568a58	-0.20951211
68	0xbe75d66b	-0.24007575
69	0xbe31f2bd	-0.17377754
70	0x3e9f72db	0.31142315
71	0x3de1a710	0.11018193
72	0x3edf05f0	0.43559217
73	0xbeba88c7	-0.36432478
74	0xbec8b000	-0.39196777
75	0xbe8f02a9	-0.27931717
76	0xbec771cd	-0.3895401
77	0x3dc515c8	0.09623295
78	0x3e97be08	0.2963717
79	0x3eeb82a1	0.459981
80	0xbdc3baf9	-0.095571466
81	0xbe686f83	-0.22698788
82	0x3e339e85	0.17540939
83	0xbe0a7059	-0.1351942
84	0x3e4ec9b9	0.20194139
85	0xbda506ff	-0.08057975
86	0x3e420666	0.18947753
87	0xbe849f3b	-0.25902733
88	0xbe2c4df8	-0.16826618
89	0x3dcdf701	0.10056878

conv_block_1.0.bias f4 [10]
0	0x3d3528ff	0.04422855
1	0xbcb719d5	-0.022351185
2	0x3e4517d4	0.19247371
3	0x3e37fa88	0.17966664
4	0x3d18d358	0.037310928
5	0xbe45bf0c	-0.1931116
6	0x3d8b3327	0.06796866
7	0xbdcc5f65	-0.099791326
8	0xbdafdbef	-0.08586871
9	0xbea5e9d6	-0.32404965

conv_block_1.2.weight f4 [10, 10, 3, 3]
0	0x3da51ff6	0.08062737
1	0x3b13cb4c	0.0022551594
2	0xbcf8c2cc	-0.030366324
3	0xbdb9f279	-0.09079451
4	0xbe4f01ad	-0.20215483
5	0xbe5369d7	-0.20645843
6	0xbd27a6fc	-0.040930733
7	0xbe4c74ed	-0.19966479
8	0xbe12a236	-0.14319691
9	0xbd81c4f0	-0.06336391
10	0x3b3dd79f	0.0028967632
11	0xbe1153a0	-0.14192057
12	0xbe1244f3	-0.14284115
13	0xbea803c3	-0.3281537
14	0xbea3dae2	-0.32002932
15	0xbd223218	-0.039598554
16	0xbe6d1756	-0.23153433
17	0xbe867e66	-0.2626831
18	0xbda701a4	-0.0815461
19	0xb9dfac85	-0.00042662412
20	0x3e214559	0.1574911
21	0x3cec783c	0.028865926
22	0x3e6dd8fb	0.23227303
23	0x3e6ef269	0.2333466
24	0xbe148590	-0.14504075
25	0xbd5b5d53	-0.053555798
26	0x3daf6c68	0.08565599
27	0xbdf771ad	-0.12082229
28	0x3cb8ae61	0.022544088
29	0xbe10b485	-0.14131363
30	0x3c985f99	0.018600272
31	0x3c9bf4d4	0.019037642
32	0xbda4e8ac	-0.08052191
33	0x3df61dca	0.120174006
34	0x3cab5157	0.02091281
35	0x3d57f5f7	0.052724805
36	0xbe07d4a7	-0.13264714
37	0xbe1474f8	-0.14497745
38	0xbd82f960	-0.06395221
39	0xbdbee86e	-0.09321676
40	0xbd8a021c	-0.067386836
41	0xbe3ae75c	-0.18252319
42	0x3df3cb86	0.119040534
43	0xbe15bab1	-0.14621998
44	0xbd5cf95d	-0.05394875
45	0x3cb681fa	0.022278775
46	0x3d5fae62	0.054609664
47	0x3dafa687	0.085766844
48	0x3dc54998	0.096331775
49	0xbdab3ed5	-0.08361594
50	0x3ced6b8d	0.028981948
51	0xbd3a789a	-0.04552517
52	0xbc52d8c0	-0.01286906
53	0xbd9decc3	-0.07711174
54	0x3e34139a	0.17585602
55	0xbd3c01ee	-0.045900278
56	0xbc0210ed	-0.007938606
57	0x3e104f3c	0.14092726
58	0x3d7566b3	0.059912395
59	0xbd9c75ea	-0.07639678
60	0x3dee99c6	0.11650424
61	0x3cb442eb	0.022004565
62	0xbdb8cdcf	-0.0902363
63	0xbda1b6ac	-0.0789617
64	0x3d3b672d	0.045752693
65	0xbc3e3891	-0.011610166
66	0xbd35d59a	-0.04439316
67	0x3db8153e	0.089884266
68	0x3c674cfe	0.014117477
69	0xbd7a1e0b	-0.061063807
70	0xbd6b9e18	-0.057523817
71	0xbca5b54e	-0.020228054
72	0x3ddc4bda	0.10756655
73	0xbc8d4e67	-0.0172493
74	0xbd30aa35	-0.043131072
75	0xbb093c23	-0.0020940385
76	0xbdc1b3f4	-0.094581515
77	0x3d527e32	0.05138988
78	0x3e13feb8	0.14452636
79	0xbdf47b9d	-0.1193764
80	0xbd012742	-0.03153158
81	0x3d5f0a99	0.054453466
82	0x3c9c8972	0.019108508
83	0xbd19b83c	-0.037529215
84	0x3d615a3a	0.055017687
85	0x3d62e4c5	0.055393953
86	0x3d217eb0	0.03942746
87	0xbc97bcd7	-0.018522663
88	0xbce4a425	-0.027910301
89	0x3c38c23e	0.01127678
90	0xbca77756	-0.020442646
91	0xbd4afd0b	-0.049557727
92	0x3d76d18d	0.060258437
93	0x3dcff908	0.10154921
94	0xbc715f8f	-0.014732256
95	0xbd15970d	-0.036521006
96	0xbb6cdff2	-0.0036144224
97	0x3ca14792	0.019687448
98	0x3ce418c1	0.027843835
99	0x3cdedb63	0.027204221
100	0xbdc48484	-0.09595588
101	0xbd272d60	-0.040814757
102	0x3da6c0d7	0.0814225
103	0x3d43091c	0.04761611
104	0xbc47ed2b	-0.012202541
105	0xbda91995	-0.082568325
106	0xbd7b93f7	-0.061420407
107	0xbdc97c2c	-0.09838137
108	0xbd08e5db	-0.033422332
109	0x3d0fb92a	0.035088696
110	0x3d90002e	0.07031284
111	0x3d4f30b0	0.05058354
112	0xbdc163b2	-0.094428435
113	0xbd8d43a8	-0.0689767
114	0xbc7326e3	-0.014840814
115	0x3dda5149	0.10660035
116	0x3be1d20d	0.006891495
117	0xbbffd1d9	-0.007806998
118	0x3d471774	0.04860635
119	0xbd437d5c	-0.047726974
120	0xbd9124d3	-0.07087102
121	0x3da93d36	0.08263628
122	0xbd30d060	-0.043167472
123	0xbcc299a7	-0.023754908
124	0xbdce87ed	-0.100845195
125	0x3dbb9279	0.09158797
126	0x3d979286	0.07400994
127	0x3d13979a	0.03603325
128	0xbdac067b	-0.083996736
129	0xbdecceff	-0.11562919
130	0xbdb84a1a	-0.08998509
131	0x3d97b017	0.07406633
132	0x3d31fbf2	0.043453164
133	0x3dbdfd0a	0.09276779
134	0x3d534d42	0.05158735
135	0x3cdb1cf5	0.026747206
136	0xba85a4c2	-0.0010196196
137	0xbda421e9	-0.0801428
138	0xbdb8db78	-0.09026235
139	0xbdc9bb11	-0.09850133
140	0x3d32db79	0.043666337
141	0xbd543eb4	-0.05181761
142	0xbcadf99b	-0.021237185
143	0xbd78c11f	-0.06073105
144	0xbcbbee8f	-0.022940902
145	0xbda1e51b	-0.079050265
146	0xbd8a7f9f	-0.06762623
147	0x3d0a9acd	0.033839036
148	0xbce47d47	-0.027891768
149	0x3d8dba7a	0.06920333
150	0xbd0afc3c	-0.033931956
151	0xbda7b649	-0.08189065
152	0xbcae4c61	-0.021276655
153	0xbd31793e	-0.043328516
154	0xbd06d809	-0.03292087
155	0xbdd08647	-0.10181861
156	0x3d86719b	0.06564637
157	0xbd8acba4	-0.067771226
158	0x3d65cf1e	0.056105725
159	0x3d43ab11	0.047770564
160	0x3da54d31	0.08071364
161	0xbd9e6240	-0.077335835
162	0x3d9d7310	0.07687962
163	0xbd2fc584	-0.042912975
164	0x3d18ad01	0.037274364
165	0x3dc6551c	0.09684202
166	0xbc3c33e8	-0.011486985
167	0x3b316839	0.0027070178
168	0xbcf63aad	-0.030057276
169	0xbdaf77ab	-0.08567747
170	0x3d7d155e	0.061787955
171	0xbdd64e3f	-0.10464143
172	0x3d860426	0.0654376
173	0x3da18824	0.07887295
174	0x3dcc17b7	0.09965461
175	0xbccbe61b	-0.024889996
176	0xbdb169c9	-0.08662755
177	0x3cc22662	0.023699943
178	0x3d6e8391	0.05823094
179	0xbdd6dd55	-0.104914345
180	0xbcc8339c	-0.024438672
181	0xbd82f7cb	-0.06394919
182	0xbc2e0acb	-0.01062269
183	0xbd55134f	-0.052020367
184	0xbd37e2c9	-0.044894014
185	0xbd17b242	-0.037035234
186	0xbdcd6da6	-0.100306794
187	0x3daec427	0.08533507
188	0x3dae34ed	0.085061885
189	0xbc881c98	-0.016615197
190	0xbc46657b	-0.012109156
191	0xbd30a1d2	-0.043123074
192	0xbdc27d5f	-0.09496569
193	0xbdd22244	-0.10260442
194	0x3d187334	0.03721924
195	0xbd730424	-0.05933012
196	0xbd8e8fb4	-0.06961003
197	0xbc53c2fd	-0.012924907
198	0xbd185427	-0.03718963
199	0xbd16caf6	-0.036814652
200	0x3a6b3809	0.00089728885
201	0xbcbf5c85	-0.023359546
202	0xbd18c34f	-0.037295636
203	0xbd51e22a	-0.051241077
204	0xbdaf930e	-0.0857297
205	0x3db4d126	0.088289544
206	0xbd2c6a04	-0.042093292
207	0x3cd55f0c	0.026046298
208	0xbd1c4389	-0.038150344
209	0x3bdd5656	0.006754677
210	0x3dc866f9	0.097852655
211	0x3d3ead4c	0.046551988
212	0xbdc23b7f	-0.09484004
213	0x3d13e822	0.03611005
214	0x3dc10235	0.09424249
215	0x3cc70a79	0.024296986
216	0x3d907859	0.070542045
217	0x3dd48ab4	0.10378018
218	0xbc85ebcd	-0.01634779
219	0x3cb7fd48	0.022459641
220	0xbd971295	-0.07376591
221	0xbcc7922e	-0.024361696
222	0x3d994e9f	0.07485699
223	0x3d549475	0.051899392
224	0xbd8da66f	-0.0691651
225	0xbdad1c06	-0.08452611
226	0xbd9385f6	-0.072032854
227	0xbdd50b1f	-0.10402512
228	0xbda6947d	-0.08133791
229	0xbcd5caf1	-0.026097747
230	0x3d91bd30	0.07116163
231	0x3c908622	0.017642085
232	0xbda43071	-0.08017052
233	0xbdad2ec0	-0.084561825
234	0x3d4f37c5	0.050590295
235	0xbda3ce26	-0.07998304
236	0xbc6a5823	-0.01430324
237	0x3d472bf5	0.048625905
238	0xbd5002bf	-0.05078387
239	0xbc40814b	-0.011749576
240	0xbc2e2b88	-0.010630496
241	0xbccca431	-0.024980636
242	0xbd5b39b2	-0.05352182
243	0xbdc06f0b	-0.0939618
244	0xbdae81b3	-0.08520832
245	0xbd6730de	-0.056443088
246	0x3dd16874	0.10225001
247	0xbd50977a	-0.05092571
248	0xbd91ec5f	-0.07125162
249	0x3ccd025a	0.025025535
250	0x3cf3ff0f	0.029784707
251	0x3d71fe5c	0.059080467
252	0x3da38c40	0.07985735
253	0x3d707d83	0.058713447
254	0xbdd6055f	-0.10450243
255	0x3c27ef09	0.0102498615

conv_block_1.2.bias f4 [10]
0	0x3edc28a6	0.42999762
1	0xbd445cd9	-0.04794011
2	0xbd7fe399	-0.062472913
3	0x3ebacd38	0.36484694
4	0xbde5408d	-0.11193953
5	0xbd81b071	-0.06332482
6	0x3eb3022f	0.34962603
7	0x3ca28afd	0.019841665
8	0x3e97aca8	0.29623914
9	0xbcc427d1	-0.023944767

conv_block_2.0.weight f4 [10, 10, 3, 3]
0	0xbca030e3	-0.019554561
1	0xbdd82df8	-0.10555643
2	0xbd62311d	-0.05522262
3	0xbd7ea763	-0.06217135
4	0xbd0231d8	-0.031785816
5	0x3dadd195	0.0848724
6	0xbdc6a227	-0.09698897
7	0x3caa0b31	0.02075729
8	0x3d5448bc	0.051827177
9	0x3d6bc792	0.057563372
10	0xbdc7f769	-0.097639866
11	0xbd27f57c	-0.041005597
12	0xbdb502bd	-0.08838413
13	0xbd86a8dc	-0.06575176
14	0x3d6be555	0.057591755
15	0xbc640267	-0.013916588
16	0x3d390fa2	0.045180924
17	0xbd720d17	-0.059094515
18	0x3c827511	0.015924962
19	0xbd82b0fa	-0.06381412
20	0x3d57ed7d	0.05271672
21	0xbd3b5976	-0.045739613
22	0xbcd4c324	-0.025971957
23	0xbdbad6da	-0.09123011
24	0x39c01a7e	0.00036640832
25	0x3dcd18a7	0.10014468
26	0x3d519d3c	0.05117534
27	0xbdc3a7b6	-0.09553473
28	0x3d480e42	0.048841722
29	0xbc874594	-0.01651267
30	0xbe07d581	-0.13265039
31	0x3d81124e	0.063023195
32	0xbda9fb5f	-0.08299898
33	0x3de684de	0.11255811
34	0xbd9e87e8	-0.07740766
35	0xbd3b567d	-0.04573678
36	0x3c21680d	0.009851468
37	0x3d6f474d	0.058417607
38	0x3c813c69	0.015775876
39	0xbc205dd3	-0.009787994
40	0x3e10feae	0.14159653
41	0xbc7dc4b4	-0.015488792
42	0xbb51059c	-0.0031894213
43	0xbba65d44	-0.005077036
44	0x3dd63d6f	0.10460936
45	0xbc504c9e	-0.012713579
46	0xbd18e8aa	-0.03733126
47	0xbd392564	-0.045201674
48	0xbd2fec85	-0.042950172
49	0xbd8bf3f1	-0.068336375
50	0xbdb172bc	-0.08664462
51	0x3c54ff1d	0.013000277
52	0x3dfe48d7	0.12416237
53	0x3ddc0b40	0.10744333
54	0xbe3d1c6e	-0.18467876
55	0x3e0ece05	0.13945778
56	0xbde0140b	-0.10941323
57	0x3dbac67f	0.091198914
58	0x3e19427d	0.1496677
59	0x3d9e9513	0.077432774
60	0x3e9fbb6c	0.3119768
61	0x3dd7c0e1	0.105348356
62	0xbc6e435d	-0.014542428
63	0x3c5e0766	0.013551569
64	0xbc7300db	-0.014831747
65	0x3a159817	0.0005706562
66	0x3c901c85	0.017591724
67	0x3d878f04	0.06619075
68	0xbe0fdeb4	-0.14049798
69	0x3dd5fe98	0.104489505
70	0xbd4b81bd	-0.049684275
71	0xbdaffec4	-0.085935146
72	0xbe1d7ad0	-0.1537888
73	0xbd12f896	-0.0358816
74	0xbc741ef8	-0.014899962
75	0x3d303892	0.0430227
76	0x3e037882	0.12838939
77	0x3c5df344	0.013546769
78	0x3c24bb1a	0.010054374
79	0xbd8806ea	-0.06641944
80	0x3cf0a925	0.02937753
81	0x3ddb583d	0.107101895
82	0xbcf0ee7f	-0.029410599
83	0x3d47b96a	0.04876081
84	0x3da7fdd2	0.08202709
85	0x3ddb6914	0.107134014
86	0xbd514657	-0.051092472
87	0x3d1424ef	0.036168035
88	0x3e10b861	0.14132835
89	0x3d8e6698	0.06953162
90	0x3d3d97e4	0.046287432
91	0xbe82f2e0	-0.25575924
92	0xbd2d1494	-0.042255953
93	0x3e258b38	0.16166389
94	0xbe9ea40b	-0.3098453
95	0xbdd52bcd	-0.10408745
96	0x3d6f3008	0.058395416
97	0x3e046b6c	0.12931603
98	0xbd0270ba	-0.031845786
99	0x3d392cc2	0.0452087
100	0xbd108a40	-0.035288095
101	0xbdcef889	-0.10105998
102	0xbd2cfedd	-0.042235244
103	0x3da69587	0.08133989
104	0xbd2f5082	-0.042801388
105	0x3ce89b83	0.028394466
106	0xbd4e8278	-0.050417393
107	0x3d85291d	0.06501982
108	0x3d821f41	0.063536175
109	0x3d1ba6b3	0.038000774
110	0xbd55db91	-0.052211348
111	0xbdb07f79	-0.086180635
112	0x3b884486	0.0041585593
113	0xbd7d69bd	-0.061868418
114	0x3db12974	0.08650485
115	0xbdcfad97	-0.101405315
116	0x3d40c48b	0.047062438
117	0xbe248766	-0.16067275
118	0x3edf8e96	0.43663472
119	0x3e667fc0	0.2250967
120	0xbea7ea00	-0.32795715
121	0x3f56daf5	0.8392785
122	0x3ec2adc0	0.38023186
123	0xbf5eda8c	-0.87052226
124	0xbe007e03	-0.1254807
125	0xbd2a913e	-0.04164242
126	0x3d2a0af6	0.04151436
127	0x3e08e193	0.133673
128	0xbcf39ed7	-0.029738827
129	0xbdacbb26	-0.08434133
130	0xbdf3c3f6	-0.11902611
131	0xbd69f7c1	-0.057121042
132	0x3dafb5b6	0.085795805
133	0xbdf6646a	-0.12030871
134	0xbd8a8414	-0.06763473
135	0x3e1c3aa9	0.15256752
136	0xbee65e08	-0.44993615
137	0xbe1c233c	-0.15247816
138	0x3e22d207	0.15900432
139	0x3deb8e27	0.11501723
140	0x3db1aa6e	0.08675085
141	0x3d3ff178	0.046861142
142	0x3e15e74e	0.14639017
143	0x3e6bf394	0.23042136
144	0xbf08d492	-0.53449357
145	0x3e40887e	0.18802068
146	0x3e3df39a	0.18549958
147	0xbf001764	-0.5003569
148	0x3eb09d10	0.3449483
149	0x3ee76d01	0.4520035
150	0xbea83b8b	-0.32857928
151	0xbdb8ba2b	-0.09019884
152	0x3a85eb56	0.001021723
153	0xbda5fd82	-0.081049934
154	0xbe6994da	-0.22810689
155	0x3c0f0feb	0.0087318225
156	0xbea6cb5b	-0.32577023
157	0xbe0d4822	-0.13797048
158	0xbdf48b95	-0.11940686
159	0xbe484bc5	-0.19560154
160	0xbe38dda7	-0.18053304
161	0xbdeff9eb	-0.1171759
162	0xbef49cf1	-0.47775987
163	0x3daf63bf	0.08563947
164	0x3f01e58d	0.5074089
165	0xbe80ccca	-0.25156242
166	0x3ef913ab	0.48647818
167	0x3eac1bf5	0.3361508
168	0xbec8607e	-0.39136118
169	0xbd118805	-0.03553011
170	0xbdb0199c	-0.085986346
171	0x3e8e2699	0.27763823
172	0xbd30e37d	-0.0431857
173	0xbde688ff	-0.11256599
174	0x3e6abc45	0.22923382
175	0x3dbf4483	0.093392394
176	0xbe21bf90	-0.15795732
177	0xbe74f1f5	-0.23920424
178	0xbc75ed5e	-0.015010206
179	0x3e4fd710	0.20296884
180	0xbd56b201	-0.05241585
181	0x3d9ce8e8	0.07661611
182	0x3d9413f5	0.07230369
183	0xbdc090ad	-0.09402595
184	0xbdd4b2c5	-0.1038566
185	0xbdc9d39e	-0.09854816
186	0xbda564dd	-0.08075879
187	0xbd4ee3d3	-0.05051024
188	0xbc320791	-0.010866062
189	0xbcd5ad66	-0.02608366
190	0xbd5a70d5	-0.05333026
191	0xbd0bbe30	-0.034116924
192	0xbd1caf66	-0.03825321
193	0x3dd39375	0.103308596
194	0xbd1f9559	-0.03896079
195	0xbd9a9df2	-0.07549657
196	0x3d331485	0.04372074
197	0xbbcb78ba	-0.00620946
198	0x3da56926	0.08076696
199	0x3d86f851	0.06590331
200	0x3dc65021	0.09683252
201	0xbd9e1a66	-0.07719879
202	0x3d8acb96	0.06777112
203	0x3db52a14	0.088459164
204	0xbd551faf	-0.05203217
205	0x3dc6753d	0.0969033
206	0x3da1ce4f	0.07900678
207	0xbcd3d9fd	-0.02586078
208	0x3da1e9b0	0.079059005
209	0xbc8d4094	-0.017242707
210	0xbde237ee	-0.11045824
211	0x3d7630c8	0.060105115
212	0x3d45097b	0.048104744
213	0xbdc79b29	-0.09746391
214	0x3d00eb06	0.031474136
215	0xbe2334ee	-0.1593816
216	0x3db11ed7	0.0864846
217	0x3dcacf3a	0.099028066
218	0x3d1eb35a	0.03874526
219	0xbd89da64	-0.06731108
220	0x3d80ada6	0.06283121
221	0x3d539eb6	0.05166503
222	0x3befd051	0.0073185344
223	0x3cd8b4d6	0.026453417
224	0x3da42130	0.080141425
225	0xbd61a527	-0.055089142
226	0xbcc3d91a	-0.023907233
227	0x3c5813cc	0.013188314
228	0x3c7d98e8	0.01547835
229	0x3de979f0	0.11400211
230	0xbc653ff2	-0.0139922965
231	0xbc939fc6	-0.018020522
232	0x3c69c533	0.014268207
233	0xbca5f05d	-0.020256216
234	0x3d5a3d56	0.05328115
235	0xbbf8c3c2	-0.0075916955
236	0xbccb8c53	-0.024847185
237	0xbc741751	-0.014898137
238	0xbda1d7bf	-0.079024784
239	0x3dae1654	0.085003525
240	0xbd1d1e0a	-0.038358726
241	0xbe0170e2	-0.12640718
242	0x3b0ad2bf	0.0021182743
243	0xbc14dfda	-0.0090865735
244	0xbd46a195	-0.04849394
245	0x3e0ae110	0.13562417
246	0xbc9c26b4	-0.019061424
247	0x3d77a632	0.06046123
248	0x3d8d53c7	0.06900745
249	0xbde45fa3	-0.11151054
250	0x3c798d85	0.015231495
251	0x3dcca43b	0.09992262
252	0xbdcbc2cd	-0.09949265
253	0xbdb7a223	-0.08966472
254	0x3de55980	0.111987114
255	0x3d8816ea	0.066449955

conv_block_2.0.bias f4 [10]
0	0xbe1bdcc7	-0.15220939
1	0x3d9955b4	0.0748705
2	0xbcfc0aa6	-0.030766796
3	0xbdf8c1d6	-0.12146346
4	0x3d068807	0.03284457
5	0xbd71b0a6	-0.059006356
6	0x3db4e752	0.08833183
7	0x3ecd257a	0.40067655
8	0x3f4ad85d	0.79236394
9	0xbcc70f24	-0.024299212

conv_block_2.2.weight f4 [10, 10, 3, 3]
0	0xbd66096b	-0.056161325
1	0xbe11b1cb	-0.14227979
2	0xbd359c0a	-0.044338264
3	0x3c956a2a	0.0182391
4	0xbbc9fb7c	-0.0061640125
5	0x3c99758f	0.018732814
6	0x3d4a4281	0.04937983
7	0xbdaaea3c	-0.08345458
8	0x3dbb159f	0.09134983
9	0xbd08cd10	-0.033398688
10	0xbe9bf436	-0.30459756
11	0xbc14956a	-0.009068826
12	0xbe117117	-0.14203297
13	0xbd5d6d7a	-0.054059483
14	0xbeca03fb	-0.39456162
15	0x3ed98524	0.4248439
16	0x3e5e1893	0.21689062
17	0xbf502dc2	-0.8131982
18	0xbc506640	-0.012719691
19	0xbbdaf7e0	-0.006682381
20	0x3d9f28c3	0.077714466
21	0xbe07703d	-0.1322641
22	0x3d6de3f8	0.058078736
23	0x3c4d6932	0.012537288
24	0x3c84e2f6	0.016221505
25	0x3ddc470d	0.10755739
26	0xbdc7bd93	-0.09752955
27	0xbdb4ecb8	-0.08834213
28	0x3dcff895	0.10154835
29	0xbc815ef8	-0.015792355
30	0xbd6fbf93	-0.05853231
31	0xbb22e62a	-0.0024856427
32	0xbb6b1690	-0.0035871603
33	0x3b90cfb1	0.00441929
34	0xbc75c836	-0.015001347
35	0x3d758577	0.059941735
36	0xbd001101	-0.031266216
37	0x3d788f1d	0.06068336
38	0x3de5ded6	0.11224143
39	0xbc9e37f5	-0.019313792
40	0xbc917af4	-0.017758824
41	0x3d1f17e6	0.03884115
42	0xbd389f7f	-0.045073982
43	0xbd139654	-0.036032036
44	0xbd580db0	-0.05274743
45	0xbe3d1724	-0.18465859
46	0xbe1328a1	-0.14370967
47	0x3d95415e	0.072878584
48	0xbd51f06a	-0.051254667
49	0x3c6065f0	0.013696179
50	0x3d9e657a	0.07734199
51	0xbd6177ce	-0.055045895
52	0xbccd5a99	-0.025067614
53	0xbd04be3f	-0.032407995
54	0xbed22b98	-0.41048884
55	0xbe1141ee	-0.14185306
56	0xbf126abd	-0.5719412
57	0xbe48140f	-0.19538902
58	0x3cd3ab0c	0.025838397
59	0x3ec68469	0.38772896
60	0xbe785af2	-0.24253443
61	0xbd6e108d	-0.058121253
62	0x3eec71e5	0.46180645
63	0x3ecb47f1	0.39703324
64	0x3df8f2f2	0.12155713
65	0xbe8144db	-0.25247845
66	0xbe34e014	-0.17663604
67	0xb915e234	-0.00014294015
68	0x3cb8b973	0.022549367
69	0x3ccb9b40	0.024854302
70	0xbd6cd6ec	-0.057822153
71	0x3e0f7f66	0.14013442
72	0x3eb7a29b	0.35866246
73	0xbe19c727	-0.15017377
74	0x3e4d0dcf	0.20024799
75	0xbbe12d43	-0.0068718507
76	0xbed80856	-0.4219386
77	0x3e6092a5	0.2193094
78	0xbeb2f1ef	-0.34950206
79	0xbee2c218	-0.44288707
80	0xbe70ca83	-0.23514752
81	0xbd3151ae	-0.043290786
82	0x3d43af26	0.047774456
83	0xbd67b115	-0.056565363
84	0x3d2c0841	0.04200006
85	0xbdaad035	-0.083404936
86	0xbd3021c9	-0.04300097
87	0x3d2f3069	0.042770777
88	0xbca66cca	-0.020315547
89	0xbd31c8d2	-0.043404408
90	0x3c88c220	0.016694129
91	0x3da1fa24	0.07909039
92	0xbd46d8ba	-0.04854653
93	0xbdace0f7	-0.08441346
94	0x3e2b5462	0.16731408
95	0xbd74f06f	-0.059799608
96	0x3e1277a4	0.14303452
97	0x3d3bf873	0.045891237
98	0x3cb1b5c7	0.021693124
99	0x3e3fcfc2	0.18731597
100	0x3da6737a	0.08127494
101	0xbeb668c4	-0.35626805
102	0x3db61ce9	0.08892233
103	0xbe8c6b3a	-0.27425557
104	0x3eaf5573	0.3424488
105	0xbe79a354	-0.24378711
106	0xbf445a23	-0.7670004
107	0x3e60cf50	0.21954083
108	0x3cd2b1d4	0.02571956
109	0x3bf4506e	0.007455877
110	0x3ddf92ca	0.1091667
111	0x3de22937	0.11043017
112	0xbd747521	-0.059682015
113	0xbb663ae7	-0.0035130323
114	0xbcf9de7d	-0.030501598
115	0xbddfe210	-0.1093179
116	0xbc9b1474	-0.018930651
117	0xbcc9aa3e	-0.02461731
118	0x3d92f0c6	0.0717483
119	0x3dddfe28	0.10839492
120	0x3c613fc9	0.013748118
121	0xbdb9d30f	-0.09073459
122	0xbdb92811	-0.09040845
123	0xbc9e1d20	-0.019300997
124	0x3cb35fa6	0.021896195
125	0xbc0fa7b3	-0.00876801
126	0x3d28c21c	0.041200742
127	0x3d677afe	0.05651378
128	0x3d2d70f1	0.042344037
129	0x3cd22e3e	0.025656816
130	0xbd3959c6	-0.04525163
131	0x3d5b5d45	0.053555746
132	0x3d4936d2	0.049124546
133	0xbdd77e7c	-0.10522172
134	0xbd72563f	-0.059164282
135	0xbd175897	-0.03694972
136	0x3cda59fe	0.02665424
137	0x3d981bc0	0.07427168
138	0xbd439a13	-0.04775436
139	0xbcf54a8f	-0.029942779
140	0x3dcbb62a	0.099468544
141	0x3db05646	0.08610205
142	0x3e0e5bb6	0.13902172
143	0x3d86175f	0.065474264
144	0xbea5f35e	-0.32412237
145	0x3d4f7ab4	0.05065413
146	0x3db0ae12	0.08626951
147	0xbeb408b0	-0.35162878
148	0x3ecd4b46	0.40096492
149	0xbd89b61f	-0.0672419
150	0xbdc98541	-0.09839869
151	0x3ef06cb2	0.46957928
152	0xbe791e29	-0.24327911
153	0xbcdaf489	-0.026727932
154	0xbdd8a8a8	-0.105790436
155	0x3cdb9771	0.026805611
156	0x3dc28d9c	0.09499666
157	0xbed1fd8a	-0.41013747
158	0xbe3439cb	-0.17600171
159	0x3e38f6f9	0.18062963
160	0xbf066805	-0.5250247
161	0x3ea22fdc	0.3167714
162	0xbca5001a	-0.02014165
163	0xbe402e8a	-0.18767753
164	0x3d275292	0.04085023
165	0x3e845f00	0.2585373
166	0x3d80d045	0.06289724
167	0xbe73ba36	-0.23801503
168	0x3d7db9e3	0.061944854
169	0x3df9af11	0.121915944
170	0x3d160d3e	0.036633722
171	0xbc239644	-0.009984557
172	0x3d619433	0.055072974
173	0x3dd74dd5	0.10512892
174	0xbd72ab9e	-0.0592457
175	0xbd8de2af	-0.06928002
176	0x3d2de3fc	0.04245375
177	0x3aae739b	0.00133096
178	0xbc9fc683	-0.019503837
179	0xbdbfa6e3	-0.09358003
180	0x3e331cc9	0.1749145
181	0x3cd76907	0.026295198
182	0xbd68f69f	-0.05687582
183	0xbddeba53	-0.10875382
184	0x3b0af4cf	0.0021203046
185	0xbdab0bae	-0.08351837
186	0xbc8337b5	-0.016017774
187	0x3e0997ef	0.13436864
188	0xbb7a326e	-0.003817703
189	0xbeab6b99	-0.33480528
190	0xbce84f57	-0.028358145
191	0xbf17833d	-0.5918463
192	0xbf31ecbb	-0.6950185
193	0x3f20e6c8	0.62852144
194	0xbe074419	-0.13209571
195	0xbe6e94c2	-0.23298934
196	0x3dbd5ba2	0.09245993
197	0x3eab0c91	0.33408025
198	0xbc73237e	-0.014840005
199	0xbc85a148	-0.016312256
200	0xbca49f81	-0.020095589
201	0x3bd884dc	0.006607635
202	0x3cdb279b	0.026752284
203	0x3d57a6d5	0.052649338
204	0xbc110854	-0.008852083
205	0xbdefb483	-0.11704352
206	0x3d3cf110	0.046128333
207	0xbdec3e72	-0.11535348
208	0x3dc82f46	0.09774642
209	0x3d083ca5	0.03326096
210	0x3bdabe98	0.0066755526
211	0x3c397e0e	0.011321558
212	0xbd9ac52a	-0.07557137
213	0x3dfe0cfe	0.12404822
214	0x3c3a7727	0.011380947
215	0x3dd1adee	0.102382526
216	0x3d82e26f	0.06390845
217	0xbe07815b	-0.13232939
218	0xbce93b0e	-0.028470542
219	0xbd23cb0a	-0.039988555
220	0x3cc01f08	0.023452297
221	0xbda6f2a6	-0.0815175
222	0x3d9ca327	0.07648306
223	0x3c993cbc	0.018705718
224	0x3d7bd766	0.061484717
225	0x3e49dbee	0.19712803
226	0x3bfb5822	0.0076704184
227	0xbe380031	-0.17968823
228	0x3e43adab	0.19109218
229	0x3c518a7b	0.012789364
230	0xbd895f5e	-0.06707643
231	0x3b9ce091	0.0047875126
232	0x3d16ede9	0.036847983
233	0xbdc01ef5	-0.093809046
234	0xbe72270e	-0.2364771
235	0xbe4f9404	-0.20271307
236	0x3e9ce655	0.3064448
237	0xbe0b601e	-0.13610885
238	0x3df58d42	0.119898334
239	0xbda00163	-0.078127645
240	0xbe0e2f13	-0.13885145
241	0x3d52474a	0.051337518
242	0xbd4c77ae	-0.049918823
243	0xbef670c3	-0.48132905
244	0x3f01ef3b	0.5075566
245	0xbdb536e5	-0.08848361
246	0xbe99c312	-0.3003164
247	0x3e9ca8e2	0.30597597
248	0xbdceeb96	-0.10103528
249	0xbba99555	-0.0051752725
250	0xbed72b7c	-0.42025363
251	0xbd1e3c82	-0.038631923
252	0x3da04ef4	0.07827559
253	0xbe94dbf5	-0.29074064
254	0x3e59d484	0.21272475
255	0xbb699c7f	-0.0035646257

conv_block_2.2.bias f4 [10]
0	0x3d8e0c76	0.069359705
1	0xbe6662a9	-0.22498573
2	0x3e8b3682	0.27190024
3	0x3db31c77	0.087456636
4	0xbb2909ed	-0.002579327
5	0x3e2720c5	0.16321094
6	0x3db49734	0.08817902
7	0xbd4491be	-0.047990553
8	0xbc964073	-0.018341279
9	0xbd95c607	-0.07313161

classifier.1.weight f4 [10, 490]
0	0xbc7b1903	-0.0153257875
1	0xbe26ce08	-0.16289532
2	0x3e456439	0.19276513
3	0xbdfea412	-0.12433638
4	0x3d764435	0.06012364
5	0xbcf54e68	-0.029944614
6	0x3d905d63	0.07049062
7	0x3d8eb09d	0.0696728
8	0x3e35e9ec	0.17765015
9	0x3dd6b095	0.10482899
10	0xbe496cdd	-0.19670434
11	0x3cf25fde	0.029586729
12	0x3e24e3c0	0.16102505
13	0x3d846a78	0.0646562
14	0x3d525856	0.051353775
15	0x3d98fc39	0.07469983
16	0x3d4c3529	0.049855385
17	0xbd14435c	-0.03619705
18	0x3de110ba	0.109895185
19	0x3c81bf74	0.015838362
20	0xbdb02a31	-0.08601797
21	0xbc18ab36	-0.009318164
22	0x3daa4165	0.08313254
23	0x3d47c2e7	0.048769858
24	0x3cec5f0f	0.028853921
25	0x3de8ad6b	0.11361202
26	0x3db33630	0.0875057
27	0xbcde341d	-0.027124459
28	0xbd8d2dfb	-0.06893536
29	0xbc9a7c39	-0.018858062
30	0xbd70b6d4	-0.05876811
31	0xbd88731f	-0.066625826
32	0x3dc9b2e0	0.09848571
33	0xbe1d4723	-0.15359168
34	0xba988c43	-0.0011638481
35	0x3ceaa974	0.028645255
36	0xbdec2b81	-0.11531735
37	0xbd8abe7f	-0.067746155
38	0xbdd7a514	-0.10529533
39	0xbdff6994	-0.12471309
40	0x3dc0dd08	0.09417158
41	0xbd7edcc0	-0.062222242
42	0x3db4fb10	0.08836949
43	0xbe15ffd2	-0.14648369
44	0xbe0cc8a7	-0.13748418
45	0x3cf4fc29	0.029905396
46	0x3baac21e	0.005211129
47	0x3eaa6ae6	0.33284682
48	0xbdcf5fcd	-0.101256944
49	0x3da95e57	0.08269947
50	0x3d7944f3	0.06085677
51	0xbe08d26e	-0.13361523
52	0xbca44591	-0.020052703
53	0xbc813d49	-0.015776293
54	0x3dbf25a2	0.0933335
55	0x3dec1a0a	0.11528404
56	0x3d54d54a	0.05196122
57	0xbe1a58c0	-0.15072918
58	0xbe1ff184	-0.15619475
59	0x3d3d6bc0	0.046245337
60	0xbe3aa188	-0.18225682
61	0xbd670372	-0.05639977
62	0xbd03b197	-0.032151785
63	0x3d42dbc4	0.047572866
64	0x3e3cbf01	0.18432237
65	0xbd5d3de8	-0.054014117
66	0x3d41acbf	0.047283884
67	0xbcbd7365	-0.023126313
68	0x3e7dac46	0.24772748
69	0xbd28c530	-0.041203678
70	0x3d103bae	0.035213165
71	0x3d0dee0c	0.034650847
72	0xbc6efde3	-0.0145868985
73	0x3af518f8	0.0018699458
74	0x3de998db	0.11406108
75	0x3e32ca97	0.17460094
76	0x3d19aaa5	0.037516255
77	0x3d65871a	0.056037046
78	0x3d9c656b	0.076365314
79	0xbd9ee302	-0.07758142
80	0xbd4cb76d	-0.049979616
81	0x3cf2ad70	0.029623717
82	0x3ca6bbf2	0.020353291
83	0xbc98b165	-0.018639276
84	0xbe258cc9	-0.16166987
85	0x3d081f16	0.03323277
86	0xbd09e863	-0.033668887
87	0xbde24947	-0.11049133
88	0xbd1b94de	-0.037983768
89	0xbda98503	-0.08277323
90	0xbca642bb	-0.020295491
91	0xbd48817c	-0.04895161
92	0xbd6c40f1	-0.05767912
93	0x3ea5c0f9	0.3237379
94	0xbe5d3a87	-0.21604358
95	0xbe1c3517	-0.15254627
96	0x3d62783e	0.055290453
97	0xbd0c7535	-0.034291465
98	0x3d7b624e	0.061373048
99	0xbcd2252e	-0.025652494
100	0x3e10cc4d	0.14140435
101	0xbd8b4ac6	-0.06801371
102	0xbd9a7381	-0.07541562
103	0x3deba6d5	0.1150643
104	0x3c3f2bbf	0.011668145
105	0x3e4d08fc	0.20022959
106	0x3d23cd94	0.039990976
107	0xbc31cc9a	-0.0108520035
108	0x3cb43676	0.021998625
109	0x3b84a8f6	0.004048462
110	0x3d462613	0.048376154
111	0x3d68704e	0.056747727
112	0x3c92a73b	0.017902007
113	0x3db1163c	0.08646819
114	0x3e8324cf	0.2561402
115	0xbcc05f56	-0.02348296
116	0xbcdfd93c	-0.027325265
117	0xbd331489	-0.043720756
118	0xbdb5c7cb	-0.08875998
119	0xbd3a57a5	-0.04549374
120	0xbdc768a3	-0.09736755
121	0x3e2a99dd	0.16660257
122	0xbe27ee0c	-0.16399401
123	0xbdcf308f	-0.10116684
124	0x3e127fbd	0.14306541
125	0xbd8a83e2	-0.06763436
126	0xbe91819f	-0.28419206
127	0x3ba66df0	0.0050790235
128	0x3d976855	0.07392947
129	0xbd855517	-0.0651037
130	0xbe35490a	-0.17703643
131	0x3ddd5607	0.10807424
132	0x3e131c60	0.14366293
133	0xbe0c407f	-0.13696478
134	0x3df70ba0	0.12062764
135	0x3cc39945	0.023876796
136	0xbdcd3d0c	-0.100214094
137	0xbe1088e4	-0.1411472
138	0xbd8931e7	-0.06698971
139	0x3da1e8ff	0.079057686
140	0x3d0ca4eb	0.034336966
141	0x3dafa756	0.08576839
142	0x3d19b601	0.037527088
143	0xbe0a4c30	-0.13505626
144	0xbdc05099	-0.09390373
145	0xbe2619a0	-0.16220713
146	0xbddf50e8	-0.109041035
147	0x3e5a9659	0.21346416
148	0xbd60d147	-0.054887082
149	0xbdb4125a	-0.08792563
150	0xbd19c9f7	-0.037546124
151	0x3dcf5217	0.10123079
152	0x3d9f23b3	0.07770481
153	0xbc91925e	-0.017769989
154	0xbe0c1c75	-0.1368273
155	0xbd20cb53	-0.039256405
156	0xbe0dccb3	-0.13847618
157	0x3a761e1d	0.00093886425
158	0x3d1f93b3	0.038959216
159	0xbe0c6e0b	-0.13713853
160	0xbdb96fdc	-0.090545386
161	0xbdded6d8	-0.10880822
162	0xbd84aabe	-0.06477879
163	0xbda25c93	-0.079278134
164	0x3d3c5bb7	0.045985904
165	0xbd9285b4	-0.07154408
166	0xbbfd4a42	-0.0077297995
167	0x3c8d7b18	0.01727061
168	0x3da25709	0.07926757
169	0x3da66647	0.081249766
170	0x3c30a97a	0.010782594
171	0x3cb7121e	0.022347506
172	0x3c35dd64	0.011100147
173	0x3dd15699	0.10221595
174	0x3e418923	0.1889997
175	0xbd5834c1	-0.052784685
176	0x3e41cee8	0.18926585
177	0xbcab306e	-0.020897117
178	0xbd93c759	-0.07215757
179	0xbd437a61	-0.04772413
180	0xbd34a13c	-0.044099078
181	0x3e3d1339	0.18464364
182	0xbde25dbc	-0.11053035
183	0x3e645134	0.22296602
184	0xbd96ad8e	-0.07357322
185	0xbdbbd032	-0.091705695
186	0xbc0ac339	-0.008469396
187	0xbd071d4d	-0.032986928
188	0x3e1a1521	0.15047123
189	0xbc8af36d	-0.016961778
190	0x3d52f7f7	0.05150601
191	0xbde7c475	-0.11316768
192	0xbc059a71	-0.0081544975
193	0xbd9c62f5	-0.07636062
194	0xbd47c7b8	-0.04877445
195	0x3db1bb2c	0.08678278
196	0xbbd48686	-0.006485763
197	0x3c68d73c	0.014211472
198	0xbd1d4463	-0.038395297
199	0x3cb2f930	0.021847337
200	0x3d1372cb	0.035998147
201	0xbc8e46a9	-0.017367678
202	0xbc98785c	-0.01861208
203	0x3cf22b60	0.029561698
204	0xbda34f81	-0.079741485
205	0x3e680e8d	0.226618
206	0x3e774583	0.2414761
207	0x3dad585f	0.08464121
208	0xbd9d6b01	-0.07686425
209	0xbd345ad9	-0.04403195
210	0x3da77a78	0.08177656
211	0x3cf90f45	0.030402789
212	0x3dbd3e31	0.09240378
213	0x3e27dcbd	0.16392799
214	0x3ab5256d	0.0013820358
215	0x3e4931f4	0.19647962
216	0x3de90ae9	0.11379034
217	0x3e4576b3	0.19283561
218	0x3d79914b	0.060929578
219	0xbe26e5ae	-0.16298553
220	0x3b968eda	0.004594666
221	0x3c92aab7	0.017903669
222	0x3e23ff2b	0.16015308
223	0x3c37bf06	0.011214977
224	0x3d99aa51	0.075031884
225	0xbe36aebb	-0.17840092
226	0xbe200453	-0.1562665
227	0x3d88ac07	0.066734366
228	0xbc0f7b0e	-0.008757366
229	0x3d62e397	0.055392828
230	0xbc8a2880	-0.016865015
231	0xbd92c89a	-0.07167168
232	0xbe13164f	-0.14363979
233	0x3d33d4a0	0.043903947
234	0x3ca573dd	0.02019685
235	0xbd150b89	-0.036387954
236	0x3d10d90b	0.03536324
237	0xbc7b0149	-0.015320131
238	0xbd58302f	-0.052780326
239	0x3c4319b2	0.011907982
240	0x3d9da0cf	0.076966874
241	0x3cc2d4d6	0.023783129
242	0xbdc74144	-0.09729245
243	0xbcd64ebd	-0.026160592
244	0x3a49b1d2	0.0007694039
245	0xbc7b157f	-0.015324949
246	0x3e055f4e	0.13024637
247	0xbdb203fe	-0.08692168
248	0xbcf02c9e	-0.02931815
249	0x3a81aafd	0.0009892877
250	0x3e6b74a2	0.2299371
251	0x3dac95a9	0.08426983
252	0xbb8afc81	-0.0042415266
253	0xbcde95f4	-0.027171113
254	0x3dce6476	0.10077755
255	0x3d5d781f	0.054069635

classifier.1.bias f4 [10]
0	0x3d6a1836	0.057151996
1	0xbe44121f	-0.19147538
2	0x3ee09b48	0.4386847
3	0xbc106960	-0.008814186
4	0xbeca4035	-0.3950211
5	0xbe1e5c63	-0.1546493
6	0x3e21a5ff	0.15785979
7	0xbc56f633	-0.013120222
8	0x3e4b1068	0.19830477
9	0xbe00c370	-0.12574553
