CNN/models/RNOG_alpha_model_3.pth (torch, 2074 bytes, 1 tensors)

conv_block_1.0.weight f4 [1, 1, 4, 25]
-4.461429 0.30627918 1.2630273 2.3323953 1.9609423 1.9568624 1.932817 2.2446508
2.144242 2.2975297 1.5469925 2.110447 1.8250217 1.7098706 1.3106904 0.19071354
0.8635978 0.57638896 0.17093787 0.1741142 -1.4508528 -2.2638433 -5.1198945 -6.881589
-5.628359 -4.7819543 0.13060412 0.8413885 1.9675456 1.917648 1.6681895 1.8954018
2.0714087 2.3061323 1.9889853 1.3488815 1.9182528 1.4682392 1.6073668 1.2263209
0.41486323 0.732346 0.37347934 0.1373703 -0.059215795 -1.7528051 -2.5491705 -5.497086
-6.7173243 -5.578015 -4.550404 0.36545324 0.8754371 1.8254454 2.0946074 1.5857273
1.5532297 1.6515 2.1327 1.9668276 1.7557349 2.1663914 2.0298493 1.8412113
1.3677994 0.053238947 0.51847947 0.3753786 0.098197244 0.15628314 -1.6031933 -2.453822
-5.3891573 -6.8624697 -5.7845197 -4.6854544 0.12727582 0.7274254 1.7148213 1.9940377
1.5909284 1.4944443 1.9603791 2.0402079 1.8217626 1.7034134 2.2392101 1.9144075
1.7242376 1.5694711 0.07617108 0.46783635 0.72103107 0.3766318 0.39219427 -1.4346007
-2.0833032 -5.158505 -6.6293654 -5.95036
00000000: 07c4 8ec0 a0d0 9c3e e1aa a13f f745 1540
00000010: 2800 fb3f 787a fa3f 8c66 f73f 5ca8 0f40
00000020: 433b 0940 ba0a 1340 da03 c63f 9011 0740
00000030: 509a e93f 0add da3f b4c4 a73f 694a 433e
00000040: bf14 5d3f 3a8e 133f 560a 2f3e fe4a 323e
00000050: 8bb5 b9bf cfe2 10c0 2dd6 a3c0 fa35 dcc0
00000060: 841b b4c0 c505 99c0 16bd 053e 3d65 573f
00000070: 89d8 fb3f 7d75 f53f 3c87 d53f 879c f23f
00000080: f691 0440 ac97 1340 1297 fe3f 26a8 ac3f
00000090: 4f89 f53f 43ef bb3f 32be cd3f 15f8 9c3f
000000a0: f468 d43e 077b 3b3f af38 bf3e cdaa 0c3e
000000b0: 438c 72bd eb5b e0bf 9c25 23c0 21e8 afc0
000000c0: 52f4 d6c0 197f b2c0 e99c 91c0 b01c bb3e
000000d0: a51c 603f 32a8 e93f 0c0e 0640 1df9 ca3f
000000e0: 3bd0 c63f 5a64 d33f 287e 0840 02c1 fb3f
000000f0: ecbb e03f 28a6 0a40 0de9 0140 d0ac eb3f
00000100: 0d14 af3f 1511 5a3d 12bb 043f a031 c03e
00000110: a31b c93d b008 203e 7035 cdbf 6b0b 1dc0
00000120: fa73 acc0 5a99 dbc0 c91a b9c0 3eef 95c0
00000130: 9854 023e 8d38 3a3f 447f db3f a13c ff3f
00000140: 8ba3 cb3f f349 bf3f b4ed fa3f c492 0240
00000150: 842f e93f 7309 da3f 384f 0f40 4e0b f53f
00000160: d1b3 dc3f 6ee4 c83f 95ff 9b3d 3f88 ef3e
00000170: 7e95 383f e2d5 c03e b0cd c83e ffa0 b7bf
00000180: d754 05c0 7912 a5c0 c323 d4c0 5969 bec0
