CNN/models/RNOG_alpha_model_0.pth (torch, 7314 bytes, 9 tensors)

conv_block_1.0.weight f4 [10, 1, 1, 2]
000000 ef ca 4a 3e ad 9e 05 be 31 67 d4 be 47 f3 58 bf
       0.19803976 -0.13048811 -0.4148498 -0.8474621
000010 f3 4e 8d bf e6 05 69 bf a8 ad fd 3d a3 a4 ae bd
       -1.1039718 -0.91024625 0.12386638 -0.08527496
000020 bd 8f 48 bf d5 31 33 bf 54 0a 19 3f 75 08 8a 3e
       -0.7834433 -0.6999791 0.59781384 0.26959577
000030 53 ac 09 3c ac db 1d 3f ed 2d c2 bd 06 0f e3 be
       0.008402902 0.6166332 -0.09481416 -0.443474
000040 3d c4 90 3e 8d f5 ab 3e d3 52 5e bf f5 df 50 be
       0.28274718 0.33585778 -0.8684513 -0.20397933

conv_block_1.0.bias f4 [10]
000000 6f 37 6e bd 6f c9 16 bf 30 cc 92 3e 30 e9 1a bf
       -0.058158334 -0.58901113 0.28671408 -0.60512066
000010 32 17 0e 3e b4 e4 46 be 2a 9b 8b bd 92 91 c2 ba
       0.13876036 -0.19423181 -0.068167046 -0.0014844409
000020 ef d3 f0 bb e8 29 14 be
       -0.007349483 -0.14469111

conv_block_1.2.weight f4 [10, 10, 1, 2]
000000 f6 f5 e1 be a0 d8 b2 be 39 ff 2e 3f 7d 28 39 3f
       -0.44132966 -0.34930897 0.6835819 0.72327405
000010 33 d5 0c bf c2 ae 2c bf 81 06 b3 3c 64 43 8b bd
       -0.55012816 -0.6745416 0.021853687 -0.06799963
000020 47 73 98 be 6a ca 84 be ce 20 a3 ba f5 9e dd 3d
       -0.2977545 -0.2593568 -0.001244569 0.10821334
000030 88 79 d6 bb c5 cf 6b 3d 19 0b 11 bf f2 77 16 bf
       -0.0065452494 0.05757119 -0.5665756 -0.5877677
000040 92 fd 20 3e e8 4e 03 3e 58 22 17 bf 1e ef 96 be
       0.1572173 0.12823069 -0.5903678 -0.29479307
000050 38 51 ff be f7 a3 7c be e8 e3 d3 3e 61 d0 43 3f
       -0.49866652 -0.24671923 0.41384816 0.76489836
000060 be e9 31 be 8e 65 a7 be 34 28 12 3e af cc b8 3d
       -0.17374322 -0.32694668 0.14273149 0.09023415
000070 ad df 85 be ef 14 17 bf fe e2 aa bc ec b5 57 3e
       -0.26147214 -0.5901632 -0.020860191 0.21065491
000080 44 79 21 be ce 79 72 3c 31 17 9f be 38 88 b1 be
       -0.15768915 0.014799548 -0.3107238 -0.3467424
000090 b0 51 fc bc 3b c4 26 be 59 cc 34 be 65 7f 03 bf
       -0.03080067 -0.16285793 -0.17656077 -0.51366264
0000a0 bd bd c6 be 8c 2e 9e be 89 61 f1 3e ea 9d 37 3f
       -0.38816634 -0.30894887 0.47144726 0.7172533
0000b0 a2 c0 92 be 79 2e 26 be 60 bb 61 3c 9a d8 fb bd
       -0.28662592 -0.16228665 0.013777584 -0.12297173
0000c0 49 d8 3e be 50 df 8e be d3 91 26 be a9 52 0b be
       -0.18637194 -0.2790475 -0.16266565 -0.13605751
0000d0 bf 46 4c be 7d fd f5 3c 06 38 0a bf 13 46 d4 be
       -0.19948862 0.0300281 -0.53991735 -0.41459712
0000e0 58 4e c6 bb fc b5 e3 3d 4b ba f2 be 48 ec 91 be
       -0.00605182 0.11118695 -0.47407755 -0.2850058
0000f0 90 ea f3 bd d1 ff 80 bd 62 22 f6 bc 66 cf ba 3d
       -0.119099736 -0.06298793 -0.030045692 0.09121589
000100 07 65 1c 3e 75 33 01 be bd 05 35 be 1b d8 03 3e
       0.15272914 -0.12617286 -0.1767797 0.12875406
000110 c0 04 10 be a3 ea 50 3d 69 89 d7 3d 8d b5 2a 3e
       -0.14064312 0.051005017 0.10524256 0.16670819
000120 28 49 fa bd 16 9c 1a be 52 9b 9f bd 47 c4 ba 3c
       -0.12220985 -0.15098605 -0.07793297 0.02279867
000130 9d 51 4d 3e 6c ee 0a bd e2 32 45 be d7 79 b0 bd
       0.20050664 -0.033918783 -0.19257692 -0.08616989
000140 20 35 a3 be 57 b3 c2 be 7d 24 dd 3d d6 78 14 be
       -0.3187647 -0.3802745 0.10797975 -0.1449922
000150 28 0a 26 bf eb 76 e6 be 9d 1c 1c 3e 75 3b 32 be
       -0.6485925 -0.45012602 0.1524529 -0.17405494
000160 5f 27 3d bf 5e 0e da be 76 1c 25 be c1 18 2d be
       -0.738882 -0.42589086 -0.16124138 -0.16903974
000170 93 59 1c 3e b8 ed 22 3e 3f 31 1a bf b1 24 21 bf
       0.15268545 0.15910995 -0.60231394 -0.6294661
000180 89 e5 12 be 9e c9 f0 3d cf 02 1b bf db f2 0c bf
       -0.14345373 0.117572054 -0.6055116 -0.5505807
000190 d3 c0 fe bd 0d 07 61 be 43 5e 0f 3c 07 b6 0f bc
       -0.12439122 -0.21975346 0.008750501 -0.008771426
0001a0 92 ff 2d be a8 9e ab 3c 56 0a e9 bd 65 dd c5 bd
       -0.16992024 0.020949677 -0.113789245 -0.09661368
0001b0 a3 d6 66 3d 0f 45 a4 3c 18 99 40 3e 0b 71 6b bd
       0.056357037 0.020052461 0.188084 -0.057480853
0001c0 ec b7 15 3e f5 23 49 3e 63 57 15 be 53 eb b2 3d
       0.14620942 0.19642623 -0.14584117 0.08736291
0001d0 37 55 8e 3d 60 76 4c 3e 93 09 4c 3e 60 08 35 be
       0.06949847 0.19967031 0.19925527 -0.17678976
0001e0 dc 54 48 bd b3 b6 fc 3d 18 f3 f7 3c 31 96 5d 3e
       -0.048909053 0.123395346 0.030267283 0.21639325
0001f0 a7 9d 29 be 7b 29 f6 3c b5 11 20 bd c9 b7 69 3d
       -0.16564046 0.030049076 -0.039079387 0.057060037
000200 3f 33 10 3c f1 67 15 bc 9c db 21 3e ef 72 90 3d
       0.0088012805 -0.00911902 0.1580643 0.07053172
000210 4d 9e 3c 3e 46 18 20 bd c5 48 15 be 0d df a9 bb
       0.18419762 -0.03908565 -0.1457854 -0.0051840604
000220 df a6 23 be 10 2e 4d be 18 fb 13 be a0 6d 52 be
       -0.15981625 -0.20037103 -0.14451253 -0.20549631
000230 a7 8a ef be bc f3 cd be b4 d5 dc be 8f 08 d3 be
       -0.4678547 -0.40225017 -0.43131793 -0.41217467
000240 a2 b6 0d bf 03 6a cb be 0f 9d 67 bd 14 70 57 be
       -0.553568 -0.39729318 -0.056546267 -0.21038848
000250 bc f6 1d bf c8 08 c1 be 9a 20 48 3e 01 25 2b 3e
       -0.6170461 -0.37702012 0.19543687 0.16713335
000260 33 21 31 3e 1a 16 e0 3c 2f 84 3f bf c9 1f 1f bf
       0.17297821 0.027354289 -0.7481107 -0.62157875
000270 09 7c 31 3d 0e c6 41 3e e4 88 e3 be 45 01 46 bf
       0.04333118 0.18923208 -0.44440377 -0.7734569
000280 61 39 34 bf f4 e8 31 bf af e6 0c bc 57 27 4e bc
       -0.70400053 -0.69496083 -0.008599921 -0.012582622
000290 87 ed 16 bf fe f9 f4 be f9 73 41 3e 71 d6 13 3e
       -0.5895619 -0.4784698 0.18891896 0.14437272
0002a0 bb dc 2d bf 25 79 a4 be b9 3b 3f 3e 06 b8 35 3d
       -0.6791493 -0.32123676 0.18675126 0.04436495
0002b0 c5 4a 56 bd d9 56 ca 3c 90 f3 2c bf 5b ae 0c bf
       -0.0523174 0.024699615 -0.67559147 -0.54953545
0002c0 2a c2 84 3c 5f 52 a7 bd 65 63 3e bf 26 e9 19 bf
       0.016205866 -0.08170008 -0.74370414 -0.6012138
0002d0 32 89 42 bf 50 fb e5 be cc 35 4d bf 4a fb c2 be
       -0.75990593 -0.449183 -0.8016021 -0.38082343
0002e0 70 13 13 bf 9e 6b cd be 53 2c 86 3d 2c 3e cb bd
       -0.57451534 -0.40121168 0.06551423 -0.09923968
0002f0 06 6c 39 bf 54 8d d7 be 65 b3 64 be 29 35 36 3c
       -0.72430456 -0.42100012 -0.22334059 0.011121073
000300 c6 36 1e 3e 14 12 61 bd a1 59 e9 be f3 c4 31 bf
       0.15450582 -0.05494888 -0.45576194 -0.69441146
000310 c6 17 57 3e 9c 18 ec bd 61 da c2 be cc 9a 2c bf
       0.21005163 -0.11528131 -0.38057235 -0.674237

conv_block_1.2.bias f4 [10]
000000 ff 9f b0 be b0 47 57 be 5d 46 98 be db f1 27 be
       -0.34497067 -0.2102344 -0.29741183 -0.16400854
000010 72 58 db be e4 46 e9 bc 63 74 90 3d c4 9a 22 bf
       -0.42840916 -0.028476186 0.07053449 -0.63517404
000020 9c c1 db be fa 97 04 bf
       -0.4292115 -0.517944

conv_block_2.0.weight f4 [10, 10, 1, 2]
000000 25 a8 20 bf 3c f5 f4 be e6 12 ff be de 80 26 bf
       -0.6275657 -0.4784335 -0.49819106 -0.65040386
000010 19 83 49 bf 8c 82 df be e0 e9 4c be 6d 25 18 bd
       -0.78715664 -0.43654287 -0.20011091 -0.037145067
000020 f8 3d 35 3e fd c0 de 3c 53 26 c8 bc 79 e5 fa bd
       0.1769942 0.027191633 -0.024432337 -0.122508
000030 d9 75 bb 3d 92 ad 72 3c 0c a5 e0 be 58 24 e4 be
       0.09153337 0.01481189 -0.4387592 -0.44558978
000040 b0 53 04 be 5e 4f 06 be 08 f4 10 bf 61 61 0c bf
       -0.12922549 -0.13116214 -0.5662236 -0.5483609
000050 32 79 10 bf 2f 21 46 bf 0e a6 d3 be b9 5c 51 bf
       -0.5643493 -0.77394384 -0.41337627 -0.8178211
000060 69 f1 e3 be 62 b8 40 bf e9 79 17 3e 42 9f f8 3d
       -0.4452012 -0.75281346 0.14792599 0.12139751
000070 99 f0 2e be 9c 0e fe 3c ba ed 78 3d 28 d1 52 3e
       -0.17083968 0.031012826 0.06077359 0.205876
000080 23 7c 33 be 5b 0a 18 3e 92 74 c7 be 7c 0c 41 bf
       -0.17527823 0.148477 -0.38956124 -0.75409675
000090 51 de 0a be d6 b4 d2 bd f8 66 1a bf 64 f9 0e bf
       -0.1356137 -0.10288398 -0.6031337 -0.5584929
0000a0 18 ca f5 be 88 08 ba be 2f bd cb be 56 82 94 be
       -0.48005748 -0.36334634 -0.39792773 -0.29005688
0000b0 f0 e8 b3 be 78 a9 95 be fc 37 cd bd 24 ae 33 be
       -0.35138655 -0.29230857 -0.10020444 -0.17546898
0000c0 06 b8 54 be 19 0a ad 3d 3a d0 f0 bc 2a 57 2f 3d
       -0.20773324 0.084491916 -0.029396165 0.042807736
0000d0 50 32 df 3d 3b fd 26 be 2c 0c 23 3f 28 e8 fd 3e
       0.10898268 -0.16307537 0.6369045 0.49591184
0000e0 74 a4 32 be 74 28 3c 3e 15 93 13 3f 25 c2 e3 3e
       -0.17445546 0.18374807 0.57646304 0.44484058
0000f0 f9 b2 c8 be 1b 5c 06 bf c3 f9 96 be b8 8e 63 be
       -0.39199045 -0.5248429 -0.29487428 -0.22222412
000100 ee e4 63 be 37 c4 35 be 46 d5 86 bd 04 0e 7b bd
       -0.22255298 -0.17750631 -0.065836474 -0.061292663
000110 d3 71 c4 bd fe 59 50 3e 2b cd 4b 3d 7e 7b 14 3e
       -0.09592023 0.2034683 0.04975621 0.14500234
000120 82 7d 29 be fd 86 59 be 33 4c c7 3e 8c 58 13 3f
       -0.16551784 -0.212429 0.38925323 0.57556987
000130 7e 6e d7 3d 2b 46 af bd c9 4f ca 3e 20 44 20 3f
       0.105191216 -0.08558305 0.39513996 0.6260395
000140 20 bf 3a bf d0 e7 e6 be 9c 88 37 bf d8 f4 26 bf
       -0.72947884 -0.45098734 -0.71692824 -0.6521735
000150 24 61 0e bf fc 86 08 bf b3 cd 87 bd 23 f6 91 bd
       -0.55616975 -0.5333097 -0.06631031 -0.07127025
000160 b8 60 3c be 0a b8 10 3e 8e d5 36 be 0a fd c6 bc
       -0.1839627 0.14132705 -0.17854902 -0.02429058
000170 ab fd 59 3e 96 8d 38 3e 35 61 48 bf 70 54 c4 be
       0.21288173 0.18022761 -0.78273326 -0.3834567
000180 59 6a e2 bc 02 22 30 be df 89 cb be 7a fd 2e bf
       -0.027638601 -0.17200473 -0.39753625 -0.68355525
000190 ca da a5 be a7 d9 0a bf f4 50 c8 be 94 67 df be
       -0.32393485 -0.5423836 -0.39124262 -0.4363371
0001a0 80 67 b2 be 76 63 32 be 41 12 df 3d 31 74 46 3e
       -0.3484459 -0.17420754 0.108921535 0.19380261
0001b0 02 5e e7 be 3c 50 de be 7e 17 52 be 4e 8e 21 be
       -0.4518891 -0.4342059 -0.20516774 -0.15776941
0001c0 8a 74 7b 3d 89 5f 2c 3e 90 9e cd 3e 98 97 1c 3f
       0.061390437 0.16833319 0.40160036 0.61168814
0001d0 5c ed a0 be 29 b6 08 bf 80 ae 44 3f e9 bf 29 3f
       -0.3143109 -0.53402954 0.76828766 0.66308457
0001e0 5d fd 0b bf fa d9 43 bf 66 58 3a bf d3 79 42 bf
       -0.54683477 -0.7650448 -0.72791135 -0.7596714
0001f0 a8 0e f5 be a9 16 db be 8b 33 f6 bc 91 63 5c 3e
       -0.47862744 -0.42790726 -0.030053874 0.21522357
000200 fe c4 40 3e c3 1b c3 bd ed 8b 50 be 3b b3 e3 bd
       0.18825147 -0.095267795 -0.20365877 -0.1111817
000210 83 ad a5 3d 81 77 8a 3d e7 b8 18 bf 07 84 1c bf
       0.08089735 0.06761075 -0.5965714 -0.6113896
000220 ef 74 5f 3e de a3 a4 3c b6 86 f5 be ac ec c8 be
       0.2182195 0.02009767 -0.4795434 -0.39243066
000230 3e a4 9a 3c 99 2b 4c 3e 05 dc 22 bf 8d db 26 bf
       0.018877145 0.19938506 -0.63616973 -0.6517876
000240 c1 e4 2c bf a2 51 c7 be c4 fb 05 3e d1 03 29 be
       -0.6753655 -0.38929468 0.13084322 -0.16505362
000250 6f d5 19 be 2c 87 22 be cf 87 58 be f3 5b 41 3c
       -0.15022825 -0.15871876 -0.21145557 0.011801708
000260 15 b6 9e bd bf 4f 07 3e 21 3f 03 3d c5 e8 e3 3c
       -0.07749573 0.13214014 0.032042626 0.027820954
000270 9c 15 63 be 62 38 01 3e b9 05 46 be 01 f0 07 be
       -0.22176212 0.12619165 -0.1933812 -0.13275148
000280 b7 fa de be 9b 61 05 bf 6d e2 ae be 7b f5 94 be
       -0.43550655 -0.5210206 -0.34157124 -0.29093537
000290 9e db aa be 4c 18 c5 be cb 66 31 be 1f 84 cd 3d
       -0.3337068 -0.384951 -0.17324369 0.10034966
0002a0 fb a5 02 3e b8 76 bd 3d b9 59 38 3d 0d 14 5c be
       0.12758629 0.092511594 0.04500744 -0.21492024
0002b0 23 63 cc 3d d2 a5 21 bd c5 30 3f 3f ae 18 1e 3f
       0.09979846 -0.03946478 0.7468379 0.6175641
0002c0 2c dc 0f 3e 46 3a 1b be c5 01 23 3f d6 7c 0f 3f
       0.14048833 -0.15158948 0.63674575 0.5604986
0002d0 79 73 8e bc 60 f3 3b be 80 c9 2e bf 1e 80 26 bf
       -0.017389046 -0.18354559 -0.68276215 -0.6503924
0002e0 08 49 29 bf 66 cd 31 bf 9a f0 31 be 65 4a 41 3d
       -0.6612706 -0.6945404 -0.17376938 0.04719009
0002f0 9a f7 91 3c af 90 3c be 74 bc 43 be 8f 1a ab bb
       0.017818261 -0.18414567 -0.19114858 -0.005221672
000300 33 d2 17 3e ad 23 53 be d5 0a 21 bd e4 61 f1 bd
       0.14826278 -0.20619078 -0.03931697 -0.11786249
000310 4a ae 2c 3e 36 02 32 3e d7 02 8c 3d 30 b3 5e be
       0.16863361 0.17383656 0.06836479 -0.21748042

conv_block_2.0.bias f4 [10]
000000 02 f9 2f bf 66 47 f8 be 19 86 3e be eb a7 61 be
       -0.6873933 -0.48491973 -0.18605842 -0.22036712
000010 92 6b e6 be e8 89 18 be 82 db 12 bf 56 68 e1 be
       -0.45003945 -0.14896357 -0.5736619 -0.44024915
000020 54 5f 65 be 1b c5 ea be
       -0.22399646 -0.45853505

conv_block_2.2.weight f4 [10, 10, 1, 2]
000000 f2 02 42 bf 9c 54 07 bf 76 d7 c2 be e6 e8 d7 be
       -0.75785744 -0.5286348 -0.3805501 -0.42169875
000010 8a 43 41 bf 58 ad 19 bf 9e 55 d5 be 2c c3 4e bf
       -0.7549368 -0.60030127 -0.41666883 -0.8076656
000020 76 a0 f7 be 00 06 04 bf 80 84 df be 64 42 1f bf
       -0.4836461 -0.51571655 -0.43655777 -0.6221068
000030 f6 c5 4e bf df 86 09 bf c8 6b 1b be df d9 16 3d
       -0.80770814 -0.5372142 -0.15177834 0.03682887
000040 1c b1 2c bf 8b d9 0a bf 37 fd 15 be 82 fd 05 be
       -0.6745775 -0.54238194 -0.14647375 -0.13084987
000050 e1 9d 09 3e 42 d8 38 be ba 3b 9d bd ec f0 ce bc
       0.13439132 -0.18051246 -0.076774076 -0.025261365
000060 8b 2a 57 be 9a c8 91 3d 74 61 93 bd 36 be 15 3e
       -0.21012323 0.0711834 -0.07196322 0.14623341
000070 a2 6b cb 3d d7 7c 13 be 16 e1 55 3e e0 7a 38 3c
       0.09932639 -0.14403091 0.20886645 0.011259764
000080 00 ea 25 3d 60 a2 06 be 52 e6 17 3e cb ea 1c 3e
       0.040506363 -0.13147879 0.14833954 0.15323941
000090 e7 df 02 3b 9c f0 4b 3d 8f d3 37 bd 13 1c 00 3d
       0.0019969882 0.04979001 -0.044879492 0.031276774
0000a0 4b aa 39 be 68 2f 15 3e ab ac 7c 3d d2 5c 17 be
       -0.18131368 0.14568865 0.061688107 -0.14781502
0000b0 89 2e 63 be be c9 18 3e 05 e7 2c 3d 3f 58 f7 bd
       -0.2218572 0.14920709 0.042212505 -0.120773785
0000c0 0a 5d 54 3e 54 32 d7 bd e5 81 56 3e be 1c 8f bc
       0.20738617 -0.10507646 0.20947988 -0.01746976
0000d0 8e 11 82 3d 86 f3 e7 bd fa 21 5c 3e 69 c0 88 bd
       0.063510045 -0.11325745 0.21497336 -0.06677324
0000e0 88 85 80 bd 13 64 35 be f2 d1 34 be 57 c0 1a be
       -0.06275469 -0.17713957 -0.17658213 -0.15112434
0000f0 9f 82 8d bd 2d 79 c3 3d 65 9b 57 be 92 1d fc bd
       -0.069096796 0.09544597 -0.21055372 -0.123103276
000100 fb 99 75 3d 19 44 4c be fe 21 a2 3d 15 57 1e be
       0.0599613 -0.19947852 0.0791664 -0.15462907
000110 ff 85 3c 3e 86 ae 74 bb 0b 20 20 3c b7 0c 22 be
       0.1841049 -0.003733547 0.009773265 -0.15825163
000120 8d 6a 75 3d 8b b8 8f 3d 86 0c a9 3d 2a 28 08 be
       0.059916068 0.07017621 0.08254342 -0.13296571
000130 ec 5d bb bd b8 82 f8 bd 5a 79 4f be bf 0d 24 be
       -0.091487736 -0.121343076 -0.20261136 -0.16020869
000140 8c ad 1f 3f 35 39 50 3f bb ad 47 3f 07 d9 30 3f
       0.62374187 0.8133729 0.77999467 0.6908116
000150 5e 23 2d be 27 32 ed be ac cd aa be 74 a4 63 be
       -0.16908023 -0.46327326 -0.3336004 -0.22230703
000160 c0 db 3a 3f 11 fd 3a 3f fa ae 33 be 95 b1 e5 bd
       0.7299156 0.730424 -0.17547217 -0.11215512
000170 d0 94 de 3e 9e 68 e4 3e 82 72 b9 3e d3 8a ff 3e
       0.4347291 0.44611067 0.36220175 0.49910602
000180 4b 6b e5 be e6 45 43 be cc d7 16 3f ba fb 30 3f
       -0.4480842 -0.19069633 0.5892303 0.69134104
000190 46 9e 35 3f 5a 91 dd 3e 40 d6 03 3f 2d fd d7 3e
       0.7094463 0.43274957 0.51498795 0.42185345
0001a0 b8 d9 7f be e4 db c4 be 62 62 29 be d0 e0 e3 be
       -0.24985397 -0.38449013 -0.16541436 -0.44507456
0001b0 21 61 3b 3f c5 fb 22 3f c5 3f 5d be 93 df b3 be
       0.7319508 0.6366542 -0.21606357 -0.3513151
0001c0 50 ad 0b 3f 92 74 18 3f be f5 27 3d 78 f0 cb 3d
       0.5456133 0.5955287 0.041005842 0.09957975
0001d0 5a 05 49 be b3 0a a1 be 71 2c 56 be 41 ed 20 be
       -0.19630948 -0.31453475 -0.2091539 -0.15715505
0001e0 02 93 38 bf 4a a6 0d bf ae a2 f3 be 98 8e 3d bf
       -0.72099316 -0.5533186 -0.47585052 -0.74045706
0001f0 05 cb 29 bf da b7 c9 be e0 5d d3 be 44 49 2f bf
       -0.6632541 -0.3939808 -0.41282558 -0.6847117
000200 84 86 24 bf f9 d5 08 bf b3 c1 06 bf dc f6 4b bf
       -0.64267755 -0.53451496 -0.5263931 -0.7967355
000210 06 38 f8 be ff 3b e2 be 71 94 a6 bd 69 82 59 be
       -0.48480242 -0.44186398 -0.08133782 -0.21241154
000220 33 45 0e bf b0 f7 14 bf 6c c7 11 3e 24 fe 1e 3e
       -0.5557434 -0.5819044 0.1423623 0.15526634
000230 b5 a2 22 bf 14 89 d0 be 29 06 fa be 02 16 0b bf
       -0.6352952 -0.40729582 -0.48832825 -0.54330456
000240 cb 5b db be 85 11 42 bf 56 fb f4 be 6b 5b 0f bf
       -0.4284347 -0.7580798 -0.47848004 -0.5599887
000250 1e ad c7 be 88 47 01 bf ff 94 c1 be 7b 8a 4d bf
       -0.38999265 -0.50499773 -0.37808987 -0.8028943
000260 b5 d1 4d bf 32 b0 dd be 25 8d 42 bd 7c b9 0b 3e
       -0.8039811 -0.4329849 -0.047497887 0.13644975
000270 3c ea 2b bf 2e 3a 49 bf f0 d6 31 3e 33 e5 df 3d
       -0.6715429 -0.786044 0.17367148 0.10932388
000280 7a bc aa bc fd 21 3c be 58 35 52 be bb a0 5e 3d
       -0.020841826 -0.1837234 -0.20528162 0.054352503
000290 d7 10 c8 be b6 e0 06 bf 89 f0 d1 be 33 e0 25 bf
       -0.39075348 -0.5268663 -0.41003826 -0.64795226
0002a0 f7 d9 b2 bd f3 92 35 be 53 6b 2d bf b7 6b 24 bf
       -0.0873298 -0.17731838 -0.6774189 -0.6422686
0002b0 21 1c 3e 3e b1 e4 45 3e 37 66 e4 bd a4 2e 35 be
       0.18565418 0.1932552 -0.111523084 -0.17693573
0002c0 bd e7 ac be 1b bc 07 bf 8e ea 51 be b2 e2 a1 3d
       -0.33770552 -0.530214 -0.20499632 0.07904567
0002d0 06 ab 3b 3e 8d 41 24 be 80 87 ac bd 9d 0c 59 3e
       0.18326959 -0.1604063 -0.08424282 0.21196218
0002e0 d1 69 bb 3d 4a f8 13 3e 68 95 97 bd d0 7c ec 3c
       0.09151042 0.14450184 -0.07401544 0.028868109
0002f0 b8 d0 b5 3d 31 d0 be 3d 41 e1 55 ba 53 0b fe bd
       0.088777006 0.09317053 -0.00081588706 -0.12404504
000300 29 4d 2c 3e 78 70 21 3e 9e e8 dc 3b a1 c9 46 be
       0.1682631 0.1576556 0.0067415973 -0.19412853
000310 79 c4 0c be 5d f2 47 3d 68 60 49 3e 24 6d c2 bd
       -0.13746823 0.04881512 0.19665682 -0.09493473

conv_block_2.2.bias f4 [10]
000000 e2 ad 08 bf 70 4a 58 be a7 10 a5 bd 03 47 29 be
       -0.53390324 -0.21122146 -0.08059817 -0.16530995
000010 a2 7a 35 bc 5f 3c 80 be 61 37 d9 be c4 2f f2 be
       -0.011076601 -0.2504606 -0.42425063 -0.47302067
000020 d1 55 17 bf 39 87 c5 bd
       -0.5911532 -0.09644932

classifier.1.weight f4 [1, 160]
000000 c9 5f 09 3f d8 fb 0c 3f e3 87 0c 3f a2 5a 11 3f
       0.5366178 0.55071783 0.54894847 0.5677892
000010 3b 9b 07 3f 0e 95 0e 3f 80 a3 1f 3f 0f bb 07 3f
       0.5297124 0.5569619 0.62358856 0.53019804
000020 00 18 2c 3f c4 98 07 3f d4 d9 26 3f a0 4b 1d 3f
       0.6722412 0.52967477 0.6517613 0.6144352
000030 98 38 28 3f 13 52 2d 3f 10 2d 06 3f 94 b1 28 3f
       0.65711355 0.6770336 0.5241251 0.6589596
000040 ca e7 3d 3c 24 32 ee 3c fb 92 d0 3c ac d8 f4 bc
       0.011590907 0.029076643 0.02546071 -0.029888473
000050 6c fa 1c bc a1 c4 03 bd e9 3d 5c 3c 01 d8 f8 3c
       -0.00958119 -0.03216994 0.013442495 0.030376436
000060 d2 c0 98 3d 16 84 7a 3d b6 e2 22 bd cc 58 ad bc
       0.074586526 0.061161123 -0.03976699 -0.021160506
000070 19 63 90 bd 87 be d1 bb cd 34 86 3b 0f 50 10 3c
       -0.070501514 -0.0064008865 0.00409565 0.00880815
000080 ed e7 43 3d 4d 3f 47 3d c2 9a d5 3c ab 75 3b bd
       0.047828604 0.048644353 0.02607477 -0.045766514
000090 ea 2f 62 bc 43 9e 29 bc 4e ec 13 3d b0 76 72 bc
       -0.013805369 -0.010352674 0.03611403 -0.014798805
0000a0 9d 09 4e bd ba 5b 5b 3d ba 70 84 3d a9 98 91 3b
       -0.050302137 0.053554274 0.064668134 0.0044432473
0000b0 7a 1c 44 bd 78 eb 97 3d c8 3b 47 bc 6b 26 6f bd
       -0.04787872 0.07417959 -0.012160249 -0.058386248
0000c0 88 cf 3a bd ca ca 4c bd 93 6c 78 3d 66 7d e7 bb
       -0.045608073 -0.049998082 0.06065042 -0.007064509
0000d0 de eb be 3c 82 7e fe 3a 28 c0 1f bc 6d eb aa 3c
       0.02330583 0.0019416364 -0.009750403 0.020864213
0000e0 3c a7 c9 bb 42 e3 04 bd d5 82 8b bd c9 3a fc 3c
       -0.006153969 -0.032443292 -0.068120636 0.03078975
0000f0 db 6a 76 3b 45 b3 92 bd 42 d3 b7 bc a3 8b 9c 3d
       0.0037600312 -0.07163099 -0.022439603 0.07643821
000100 85 33 87 bb c3 18 02 bd c4 04 0d 3d 7a 3a 33 3d
       -0.0041260147 -0.031761896 0.034428373 0.04375694
000110 5e 29 bd 3c ef 0f 26 ba a3 bb 15 bd f3 ea 64 bc
       0.023091014 -0.0006334772 -0.036555897 -0.013972032
000120 cc 38 0c bc 08 54 0f 3d 4d aa fd bc a2 f2 79 bd
       -0.008558463 0.034992248 -0.030964995 -0.06102241
000130 52 19 82 3c db 40 64 3c 96 b2 b3 3a 14 52 75 bd
       0.015881214 0.013931478 0.0013709839 -0.05989273
000140 00 b7 df be 00 34 9d be ab 0d ea be 9d 34 a9 be
       -0.43694305 -0.30703735 -0.45713553 -0.33047953
000150 40 9c c3 be 8d 39 d0 be d8 e0 b0 be 6f 8f a8 be
       -0.38205147 -0.40668908 -0.34546542 -0.3292193
000160 a2 94 ad be 39 50 bf be 54 13 bf be c7 7c a4 be
       -0.3390246 -0.37365893 -0.37319434 -0.32126448
000170 8d 88 a0 be 70 04 b4 be d0 4b a1 be 7e 9a b3 be
       -0.3135418 -0.35159636 -0.31503153 -0.35078806
000180 a2 91 26 3f bd 37 06 3f e3 7a 0a 3f 42 54 1c 3f
       0.6506597 0.524288 0.5409376 0.6106607
000190 49 42 0f 3f 30 e9 2b 3f 85 c6 18 3f 83 4a 11 3f
       0.5596052 0.6715269 0.59677917 0.5675432
0001a0 c8 d7 13 3f bb 2c 11 3f 80 79 22 3f 31 52 1d 3f
       0.5775113 0.5670888 0.63466644 0.6145354
0001b0 cb ae 10 3f 30 32 09 3f 7b bd 1c 3f c4 e5 2d 3f
       0.5651671 0.53592205 0.61226624 0.6792872
0001c0 5c 58 0c 3f f8 e5 11 3f 8b 9a 0e 3f bb 4c 11 3f
       0.54822326 0.5699153 0.55704564 0.56757706
0001d0 4f 99 28 3f 4e 7f 12 3f 96 39 0a 3f c5 89 0c 3f
       0.6585893 0.572255 0.5399412 0.5489772
0001e0 e4 bb 1b 3f 55 63 09 3f 1d ea 20 3f d1 04 1a 3f
       0.60833573 0.53667194 0.6285723 0.601636
0001f0 b7 a8 15 3f 30 96 13 3f e9 f3 1d 3f 10 c1 09 3f
       0.58460563 0.5765104 0.617003 0.53810215
000200 cc 90 02 bf ea 0f 1e bf 3e d2 fe be 06 99 f9 be
       -0.5100219 -0.6174303 -0.49769777 -0.4874956
000210 de 31 06 bf a9 58 f5 be 6c ed 1e bf 2e 9a 12 bf
       -0.5241984 -0.47919205 -0.6208103 -0.5726651
000220 c1 80 0a bf 0b 0b 1e bf 9e 6b 0c bf 92 49 01 bf
       -0.5410271 -0.617356 -0.5485171 -0.50502884
000230 f1 57 04 bf fe e5 1e bf 5c d2 21 bf 7f c5 12 bf
       -0.5169669 -0.6206969 -0.6321161 -0.57332605
000240 94 92 64 bd b8 39 5c bd d6 a7 a0 bd 31 42 3e 3d
       -0.05580385 -0.053765982 -0.07844512 0.046449844
000250 04 36 04 bb 1f 69 3d 3d 8a 31 59 bb 7b a6 4f 3d
       -0.0020173797 0.04624283 -0.00331411 0.050695878
000260 7c 1a ae 3b cb 90 14 3c 4f 66 ac 3c 59 23 56 3d
       0.005313216 0.009067724 0.021044878 0.052279804
000270 c6 74 44 3d 60 7b 61 bd 31 6e 64 bd e3 9a 93 3c
       0.047962926 -0.0550493 -0.05576915 0.018018192
