CNN/models/RNOG_alpha_model_2.pth (torch, 4776 bytes, 3 tensors)

conv_block_1.0.weight f4 [10, 1, 3, 12]
0	0xbf7a3f21	-0.9775258
1	0xbef52c9a	-0.4788559
2	0xbe675fd8	-0.22595155
3	0x3eee3524	0.46524918
4	0x3ea7986e	0.32733482
5	0x3f16d4c3	0.589184
6	0x3ec2dd99	0.3805969
7	0x3f4d7994	0.8026364
8	0x3f2be6f6	0.67149293
9	0xbec4400d	-0.38330117
10	0xbf4ffa5b	-0.8124139
11	0xbef8e65d	-0.48613253
12	0xbe64d0e6	-0.22345313
13	0xbd0e8666	-0.03479614
14	0x3db13432	0.086525336
15	0xbc8cb3ec	-0.017175637
16	0xbc64ccd8	-0.013964854
17	0xbdf3b0f1	-0.11898983
18	0xbd3433b8	-0.043994635
19	0xbded2e19	-0.11581058
20	0x3e12fbad	0.14353819
21	0xbd1425b4	-0.03616877
22	0x3e3469d1	0.17618491
23	0xbddb2917	-0.10701197
24	0xbfb0210c	-1.3760085
25	0xbe9be218	-0.30445933
26	0xbee95141	-0.45569804
27	0x3f0212c9	0.50809914
28	0x3ed0955a	0.40738946
29	0x3e97d146	0.2965185
30	0x3ed9450c	0.4243549
31	0x3e84e777	0.25957844
32	0x3ee59fc4	0.44848454
33	0xbda8a1ba	-0.08233972
34	0xbef0919e	-0.46986097
35	0xbf1285bb	-0.57235307
36	0xbfa4d391	-1.2877065
37	0xbea26e6f	-0.3172488
38	0xbd626914	-0.05527599
39	0x3db8e6ac	0.09028372
40	0x3e2a91c8	0.16657174
41	0x3e47aeb4	0.19500238
42	0x3e876527	0.2644436
43	0xbae4fd6f	-0.0017470549
44	0x3ebec9a2	0.3726321
45	0x3f10db95	0.56585056
46	0x3f840aa8	1.0315752
47	0x3f81bc65	1.0135618
48	0xbcef40e7	-0.029205753
49	0x3c46f08a	0.01214231
50	0x3c8ff0d5	0.017570892
51	0xbd1a0db0	-0.03761071
52	0x3d3b42d6	0.045718037
53	0xbd031b79	-0.03200862
54	0x3dda92ea	0.10672553
55	0xbdb1d798	-0.08683699
56	0x3df0df65	0.11761359
57	0x3e1103b5	0.1416157
58	0x3c0cae46	0.008586472
59	0x3d872e3c	0.066006154
60	0xbf8fb752	-1.122782
61	0xbed2866b	-0.41118178
62	0xbe498658	-0.19680154
63	0x3c7a137b	0.015263434
64	0x3e0cbd3c	0.13744062
65	0x3dc36e93	0.09542575
66	0x3d97a5fe	0.07404707
67	0x3d32433d	0.043521155
68	0x3e0b0390	0.13575578
69	0x3f22ee21	0.63644606
70	0x3f9c768a	1.2223675
71	0x3f9603ad	1.1719872
72	0xbe2236cf	-0.1584122
73	0x3e1a81be	0.15088555
74	0xbd359b33	-0.044337463
75	0x3e18d81b	0.14926188
76	0xba58de9f	-0.0008272919
77	0x3cc04245	0.0234691
78	0x3df8cee1	0.12148834
79	0xbd9186e6	-0.07105808
80	0x3d83bf65	0.0643299
81	0xbdd9fec5	-0.106442966
82	0xbe92e0fd	-0.28687277
83	0x3daf0be5	0.085471906
84	0xbcb5047e	-0.022096869
85	0x3dae6238	0.085148275
86	0xbcdc4ac7	-0.026891125
87	0x3d611290	0.054949343
88	0xbd5c84ab	-0.05383746
89	0x3d8aca5f	0.067768805
90	0x3e0c04e3	0.13673739
91	0xbe257c7c	-0.16160768
92	0x3dde80f3	0.10864439
93	0xbd0b481b	-0.034004312
94	0xbe051e06	-0.12999734
95	0x3ca77eff	0.020446299
96	0x3cdc0cc7	0.026861561
97	0x3d95a753	0.07307305
98	0xbd4724ff	-0.048619267
99	0x3d2575ea	0.040395655
100	0xbc99cbeb	-0.018773993
101	0x3de4c2d1	0.11169971
102	0x3d8c29c2	0.06843902
103	0xbd8f85b1	-0.070079215
104	0x3d75e919	0.060036752
105	0xbe27163f	-0.1631708
106	0xbd8c7b29	-0.068594284
107	0x3d244b94	0.04011114
108	0xbf888640	-1.066597
109	0xbe33c89e	-0.17556998
110	0x3dcff7be	0.10154675
111	0x3eba0cf2	0.36338
112	0x3e00d5ba	0.1258153
113	0x3c9c5870	0.019085139
114	0xbd4ee7a4	-0.05051388
115	0xbd7768b7	-0.0604026
116	0x3eab9d48	0.33518434
117	0x3f6d453d	0.92683774
118	0x3fc00f5c	1.5004687
119	0x3fc376b7	1.5270604
120	0xbed8de61	-0.42357162
121	0x3da8c5ac	0.08240828
122	0xbd823b3e	-0.06358956
123	0x3dfa8bbe	0.12233685
124	0x3c82b2fd	0.015954489
125	0xbe30ff60	-0.17284918
126	0x3e1da5fe	0.15395352
127	0xbe23aacb	-0.15983121
128	0xbd8c766a	-0.06858523
129	0x3e2348c9	0.15945734
130	0xbdf05851	-0.11735595
131	0x3cfce746	0.030871999
132	0xbf5b8649	-0.8575178
133	0xbe1be5af	-0.15224336
134	0x3d733f2f	0.05938643
135	0x3e0c1aff	0.13682173
136	0x3d944969	0.072405644
137	0xbd5cd32a	-0.05391232
138	0xbe7cace3	-0.24675326
139	0xbda58fdd	-0.0808408
140	0x3e70a1cd	0.23499222
141	0x3ee2269c	0.44170082
142	0x3f7d3124	0.9890311
143	0x3f666156	0.8999227
144	0xbe32f03a	-0.17474452
145	0xbcc79e54	-0.024367489
146	0x3e95cd8a	0.29258376
147	0x3e1c3cf0	0.15257621
148	0x3eae85c5	0.34086433
149	0x3db67792	0.08909525
150	0x3d88a3bc	0.06671855
151	0x3e09dba1	0.13462688
152	0x3e69f062	0.22845605
153	0xbe147856	-0.1449903
154	0xbe92ab1c	-0.2864617
155	0xbec21338	-0.37905288
156	0xbddd2a31	-0.10799063
157	0x3d47ef0e	0.048811965
158	0x3e38b4cf	0.18037723
159	0xbc6516be	-0.013982473
160	0xbd11becd	-0.035582352
161	0xbdd1bd0e	-0.102411374
162	0xbdb33fd8	-0.087524116
163	0x3df0714d	0.117403604
164	0x3d7476f3	0.05968375
165	0xbbe9c360	-0.007133886
166	0xbdad5345	-0.08463148
167	0xbda5a9df	-0.08089041
168	0xbe51f332	-0.20502928
169	0x3d81cc56	0.06337802
170	0x3e00148e	0.12507841
171	0x3e68f0e3	0.22748141
172	0x3e069da3	0.13146071
173	0x3dc5cf1d	0.09658644
174	0x3c5728e8	0.013132311
175	0xbcaa251c	-0.020769648
176	0x3e24891d	0.1606793
177	0xbe048f5a	-0.1294531
178	0xbe637282	-0.2221165
179	0xbf0ab6ab	-0.5418498
180	0xbf63d512	-0.88996994
181	0xbea899f7	-0.32929966
182	0xbd7a9c75	-0.061184365
183	0x3dc9b2c1	0.09848548
184	0x3d98d324	0.07462147
185	0x3e79efe0	0.24407911
186	0x3e5cfd3a	0.21580973
187	0x3e45cfa6	0.19317493
188	0x3d616d72	0.055036016
189	0x3f0c2790	0.5474787
190	0x3f1c4dc8	0.61056185
191	0x3f142301	0.5786591
192	0xbd6ed593	-0.05830915
193	0xbdc91d6e	-0.098200664
194	0xbd3f317b	-0.046678048
195	0xbda3c7a4	-0.07997063
196	0x3d125f4c	0.035735413
197	0x3dac328a	0.08408077
198	0x3e00512a	0.12530962
199	0x3e0aa588	0.13539708
200	0x3d31a740	0.043372393
201	0x3e1acb9e	0.15116736
202	0x3de29736	0.110639974
203	0x3e4d9086	0.20074663
204	0xbf1ad53e	-0.6048163
205	0xbeb80da6	-0.35947913
206	0x3d950743	0.07276776
207	0x3d3fdfcc	0.04684429
208	0xbdddbc2c	-0.108269066
209	0x3ddb3d49	0.107050486
210	0xbddf7639	-0.10911221
211	0x3e440334	0.19141847
212	0x3e903cde	0.28171438
213	0x3e3d0f3a	0.1846284
214	0x3f339b15	0.7015851
215	0x3f1d3a4a	0.6141707
216	0x3f236ca6	0.6383766
217	0x3e07baac	0.13254803
218	0x3d4f3f21	0.050597314
219	0xbe3ff4ce	-0.1874573
220	0x3e448e28	0.19194853
221	0xbe79aad3	-0.2438157
222	0xbd010296	-0.031496607
223	0xbd07f09b	-0.033188444
224	0xbca47e4d	-0.020079756
225	0xbe3d9b90	-0.18516374
226	0xbf246b9e	-0.6422671
227	0xbf029059	-0.5100151
228	0x3df9e779	0.12202353
229	0xbcf103c7	-0.029420746
230	0x3c9683d8	0.018373415
231	0xbda1ab28	-0.078939736
232	0xbcb131d4	-0.021630205
233	0xbe595c68	-0.21226656
234	0xbdb87afd	-0.09007833
235	0x3ddb4c5f	0.10707926
236	0xbe034fee	-0.1282346
237	0xbd62a9ef	-0.055337843
238	0xbe85d68f	-0.26140258
239	0x3c5cc6a3	0.013475093
240	0x3f074eab	0.5285441
241	0x3bb85f6f	0.005626611
242	0x3e1f0dfe	0.15532681
243	0xbd07215e	-0.032990806
244	0x3d7fe9b0	0.06247872
245	0xbc4483ee	-0.011994345
246	0xbc10b9c5	-0.008833353
247	0x3c12286d	0.008920771
248	0xbdeb2722	-0.11482073
249	0xbec4728e	-0.38368648
250	0xbec9b400	-0.39395142
251	0xbf3ad1b3	-0.72976226
252	0x3ee1b574	0.4408375
253	0x3e068276	0.13135704
254	0x3e58c0af	0.21167253
255	0x3e6c0393	0.23048238

conv_block_1.0.bias f4 [10]
0	0x3f2c8765	0.67394096
1	0xbffde06b	-1.9834112
2	0xbba6d2a3	-0.005091028
3	0xc0052cf1	-2.080868
4	0x3d8221b1	0.063540824
5	0xbfaeaee7	-1.3647126
6	0x3f92958e	1.145189
7	0x3ed88360	0.4228773
8	0x3fc8ed49	1.5697414
9	0x3ebc8f84	0.36828244

conv_block_1.1.weight f4 [1, 10, 2, 14]
0	0x3f293243	0.6609232
1	0x3e51b5fe	0.20479581
2	0xbd741a50	-0.059595406
3	0xbee043c1	-0.43801692
4	0xbebcd6df	-0.36882684
5	0xbf19025a	-0.59769213
6	0xbebba651	-0.36650327
7	0xbec3a8f5	-0.3821484
8	0xbea28207	-0.31739828
9	0x3d953e0d	0.07287226
10	0x3ce51172	0.02796242
11	0x3e22879c	0.15872043
12	0x3f0d969f	0.55307955
13	0x3f20e2b2	0.6284591
14	0x3f6abbcb	0.916928
15	0x3d81712e	0.063204154
16	0x3e3350f1	0.17511345
17	0xbe72dba2	-0.23716596
18	0xbeb25c75	-0.34836164
19	0xbf1b19b5	-0.605861
20	0xbed5919b	-0.4171265
21	0xbeb7a103	-0.3586503
22	0xbea9826f	-0.33107325
23	0xbe07c471	-0.1325853
24	0x3e1e830e	0.15479681
25	0x3ea656c4	0.32488072
26	0x3eba494e	0.36384052
27	0x3f2283eb	0.6348254
28	0x3fcdb45d	1.6070668
29	0x3ea6bf1b	0.32567677
30	0xbc863b26	-0.016385626
31	0x39acc91c	0.00032956235
32	0xbe243cd5	-0.1603883
33	0x3d7e9bc4	0.06216027
34	0x3d8b2ac0	0.06795263
35	0xbde59c9c	-0.112115115
36	0xbe7cc1d1	-0.2468331
37	0x3e05604d	0.13025017
38	0x3f1ffed9	0.6249824
39	0xbea47300	-0.32118988
40	0xbf6ebdf0	-0.9325857
41	0xbf71e215	-0.944856
42	0x3fc6da8c	1.5535445
43	0x3e5ae59c	0.21376652
44	0xba1ef34b	-0.0006063475
45	0xbe1d2193	-0.15344839
46	0xbc53091e	-0.012880592
47	0x3e2d5bd4	0.16929561
48	0xbd0de7ea	-0.034645
49	0xbd6aac05	-0.057292957
50	0xbe52573b	-0.20541088
51	0x3e5b6c3e	0.2142801
52	0x3f21060d	0.6289986
53	0xbec9167b	-0.39274964
54	0xbf88594c	-1.0652251
55	0xbf9fe7c7	-1.2492608
56	0x3e232ca0	0.15934992
57	0xbd4e1f6a	-0.050322928
58	0xbc8afde3	-0.016966766
59	0x3daed0cf	0.08535921
60	0xbdd6ec40	-0.1049428
61	0x39895ecc	0.00026201305
62	0xbd189e22	-0.037260182
63	0xbdd726fe	-0.10505484
64	0x3c89e415	0.01683239
65	0xbd8ab1c9	-0.06772191
66	0x3d02ca49	0.031931195
67	0x3a9df142	0.001205005
68	0xbd3ab76f	-0.045585092
69	0x3e1be516	0.15224108
70	0xbbad7f71	-0.005294733
71	0xbd208a97	-0.03919467
72	0x3d4738b7	0.048638072
73	0x3dda8ffe	0.106719956
74	0xbca68373	-0.020326352
75	0xbd0b5980	-0.0340209
76	0xbad95107	-0.0016579934
77	0xbd9ad203	-0.07559588
78	0x3d144ec7	0.03620794
79	0xbda60f62	-0.08108403
80	0x3c95a978	0.018269286
81	0xbd100bd4	-0.03516753
82	0xbd33d4b0	-0.043904006
83	0x3db28209	0.087162085
84	0x3fdd7db2	1.7303984
85	0x3e1dcec7	0.1541091
86	0x3c5777fc	0.013151165
87	0x3df2bf1b	0.11852857
88	0x3e7569c5	0.23966129
89	0x3f236928	0.6383233
90	0x3e937695	0.28801408
91	0x3e1987b3	0.14993171
92	0xbdd20556	-0.10254924
93	0x3e9bd906	0.30439013
94	0x3eea21d8	0.45728946
95	0xbf12d4d5	-0.57356006
96	0xbfcc809f	-1.5976752
97	0xbfccc1b4	-1.5996614
98	0x3fb4b86f	1.4118785
99	0x3cf7531c	0.030190997
100	0xbe855599	-0.26041868
101	0xbe4ca627	-0.19985257
102	0x3e0aab76	0.1354197
103	0x3e292919	0.16519584
104	0x3e4c50bf	0.19952677
105	0x3cb0abcc	0.021566294
106	0xbeace020	-0.33764744
107	0x3e61b2d6	0.22040877
108	0x3ec62f5d	0.3870801
109	0xbea6ecfa	-0.32602674
110	0xbf83493e	-1.0256727
111	0xbf8dba5f	-1.1072501
112	0x3db68eea	0.089139774
113	0x3e26cdbf	0.16289423
114	0x3d45ba12	0.048273154
115	0xbc1db4c0	-0.009625614
116	0x3d944780	0.072402
117	0xbdf975b3	-0.121806525
118	0xbcbce7e8	-0.0230598
119	0xbdbc9ccc	-0.09209594
120	0xbd8cd016	-0.06875627
121	0xbe0c7392	-0.13715962
122	0xbd25032d	-0.04028623
123	0xbdceac62	-0.10091473
124	0x3eb1a8f2	0.34699208
125	0x3c4b7e6e	0.01242028
126	0x3de5f519	0.11228389
127	0x3dee3b0f	0.11632358
128	0x3daa6e26	0.083217904
129	0xbe1eaa3f	-0.15494631
130	0x3d94a6bb	0.07258364
131	0xbe81c3d2	-0.25344712
132	0xbdbf41b7	-0.09338706
133	0xbdd0474d	-0.101698495
134	0xbe37c448	-0.17945969
135	0xbe56f578	-0.20992076
136	0xbe028792	-0.12747028
137	0x3e12f1f2	0.14350107
138	0x3e641175	0.22272284
139	0x3e6474ab	0.2231013
140	0x3f7c509a	0.9856049
141	0x3dc0a230	0.09405935
142	0xbce9fd90	-0.02856329
143	0xbe413dd0	-0.18871236
144	0xbe0f9a39	-0.14023675
145	0x3d2b7e15	0.041868288
146	0xbd83ce37	-0.06435817
147	0xbe00fa51	-0.12595488
148	0xbe9a2390	-0.30105257
149	0x3e9ea6f0	0.30986738
150	0x3e98fefa	0.29882032
151	0xbd9a484d	-0.075333215
152	0xbef70861	-0.4824858
153	0xbf05a169	-0.5219942
154	0x3f4c4888	0.79798174
155	0x3e33ae23	0.17546897
156	0xbdd8b18c	-0.105807394
157	0xbe250988	-0.16116917
158	0xbc73f366	-0.014889574
159	0xbd047bb6	-0.032344542
160	0x3deda1c2	0.116031185
161	0xbca0469e	-0.019564923
162	0xbe129943	-0.14316277
163	0x3e8e571d	0.27800837
164	0x3e7b063d	0.24514098
165	0xbdbf86fc	-0.09351918
166	0xbe9d7087	-0.30749914
167	0xbf336440	-0.70074844
168	0xbf291988	-0.6605458
169	0xbcdd1f69	-0.026992517
170	0x3ddf63eb	0.1090773
171	0x3d95e527	0.07319098
172	0x3b5568d7	0.003256371
173	0x3c0a7f6b	0.00845323
174	0xbdbe13ce	-0.09281121
175	0x3d73c337	0.059512343
176	0x3e5a3b24	0.21311623
177	0xbdba92eb	-0.09110054
178	0xbe3a22b2	-0.18177298
179	0xbe029460	-0.12751913
180	0x3f10f5c1	0.5662499
181	0x3ead6d83	0.33872613
182	0xbf48043a	-0.7813145
183	0x3de55dba	0.111995175
184	0x3e2f5848	0.1712352
185	0xbdac0e51	-0.08401168
186	0x3e2ccd98	0.16875303
187	0xbe116f1d	-0.14202543
188	0xbd9a01de	-0.075198874
189	0xbda55c31	-0.08074225
190	0xbd909d4a	-0.070612505
191	0xbdbd3553	-0.092386864
192	0xbeaaeac9	-0.33382252
193	0x3e16e6c0	0.14736462
194	0x3efb6158	0.49097705
195	0x3ef8ba5e	0.48579687
196	0xbe33a57c	-0.17543596
197	0x3e2653a2	0.16242841
198	0x3d53df9f	0.051726934
199	0x3d4da70a	0.05020813
200	0x3b7c9255	0.003853937
201	0xbc1552e7	-0.009114004
202	0x3da86a71	0.08223427
203	0x3d044d24	0.03230013
204	0x3e468007	0.19384776
205	0xbce5439d	-0.027986342
206	0xbe7df77c	-0.24801439
207	0x3e3bef5b	0.18353026
208	0x3d941558	0.072306335
209	0xbe3a1eca	-0.18175808
210	0xbf2e0107	-0.6797032
211	0xbdc8ae08	-0.09798819
212	0xbda6527f	-0.08121204
213	0x3d81a78d	0.06330786
214	0x3d55c597	0.05219039
215	0xbdf6d755	-0.1205279
216	0xbd3ff9d3	-0.04686911
217	0xbd006a35	-0.031351287
218	0x3dfbfd14	0.1230413
219	0xbe371f73	-0.1788309
220	0xbecd9f25	-0.4016048
221	0x3e093165	0.13397749
222	0x3f0322c6	0.51224935
223	0x3f35b56a	0.7097994
224	0xbf2c6b44	-0.67351174
225	0xbe13289a	-0.14370957
226	0x3e47796e	0.19479915
227	0xbd64f1cb	-0.055894654
228	0xbdd4cae5	-0.103902616
229	0xbdd1cd37	-0.1024422
230	0xbe6dca72	-0.23221758
231	0xbdcce2ae	-0.10004173
232	0x3e15fbd4	0.14646846
233	0xbead886f	-0.33893153
234	0xbedd72ba	-0.43251592
235	0xbc4ac392	-0.012375729
236	0x3f509de7	0.8149094
237	0x3f890ba3	1.0706676
238	0xbfa5242e	-1.2901666
239	0xbe593022	-0.21209767
240	0x3e16b8a6	0.14718875
241	0xbd3b8252	-0.04577858
242	0x3e06da9f	0.13169335
243	0xbea28731	-0.31743768
244	0xbe3798f5	-0.17929442
245	0x3dcb6518	0.099313915
246	0x3cd679c4	0.02618111
247	0xbeb5a579	-0.35477808
248	0xbf057d81	-0.5214463
249	0x3dcfcd63	0.10146596
250	0x3f932842	1.1496661
251	0x3fb44daa	1.4086201
252	0x3d62de1f	0.055387612
253	0x3e23f1e6	0.16010246
254	0x3e0d060a	0.13771835
255	0x3de4e65b	0.11176749
