CNN/models/RNOG_alpha_model_1.pth (torch, 4776 bytes, 3 tensors)

conv_block_1.0.weight f4 [10, 1, 3, 12]
-0.004447513 -0.00554046 0.00066097244 0.012122868 0.015489849 0.009681597 0.00913476 0.009336208
0.02803223 0.038444474 0.027944744 0.03178198 0.016816566 0.023897914 0.04176996 0.036497373
0.05148118 0.048207264 0.019919895 0.03985457 0.040332433 0.05295304 0.002010963 0.045146514
0.01550845 0.015697204 0.022490386 0.012570761 0.008529141 -0.0028816212 -0.008236459 -0.010834484
-0.004324506 0.026684728 0.011218096 0.016262269 0.15107064 -0.18876557 -0.19741353 -0.549146
-0.28792343 0.12914799 -0.22034216 -0.77626514 0.09021005 1.1020856 0.8154893 -1.1553663
0.28982607 -0.40239552 0.016990274 -0.16947748 0.11783228 0.12364597 0.055132445 -0.14222632
-0.23833749 0.31596085 0.40647632 -0.399235 1.9380751 0.46414423 0.293102 -0.26034024
-0.020325942 0.8577249 -0.03780318 -0.14506668 -0.207393 1.1058525 1.2209128 0.09812771
-0.48329166 -0.17827158 -0.18890493 0.26723602 -0.09435658 0.58583367 -0.021690456 0.11132814
-0.032723516 0.59350413 1.0461032 -0.26598546 -0.40511066 0.05160441 0.1881354 0.4612751
-0.12770939 0.33148912 0.106718525 0.15696177 0.3549594 0.32997128 0.42397696 0.023618551
-0.49742624 -0.38012597 -0.25443983 0.27652323 -0.11547093 0.30039975 -0.08936966 -0.13209444
0.16678213 0.81988484 0.966779 -0.36392862 -0.00062630104 -0.0060415645 0.0013114575 0.008920901
0.014264682 0.0067832293 0.005766528 0.0076427693 0.024122918 0.03135361 0.024623044 0.025931591
0.016876077 0.02168826 0.038500894 0.03185304 0.04737257 0.040210605 0.016723013 0.03420956
0.034944467 0.043128952 0.004149732 0.037287053 0.012791777 0.014797712 0.019134762 0.007868589
0.008326636 -0.0048091062 -0.0064198575 -0.007581099 -0.002242468 0.019065432 0.0116844345 0.013752786
-0.45636177 -0.5478191 -0.013214782 -0.08846491 -0.4475759 0.16999416 -0.39780015 0.21623284
-0.055665515 0.5029448 1.186325 0.83734685 -0.07500184 -0.14020868 -0.123519674 -0.2699837
0.19402811 -0.20834894 0.027444385 -0.023899332 0.12520511 0.25413576 0.90776134 0.93555975
-0.74192184 -0.58880544 -0.16185006 0.31842753 -0.2147288 -0.34140715 -0.04415368 -0.27214116
-0.08989625 0.75061655 1.3245198 1.9392554 -0.37710223 -0.3534885 0.18923064 0.032550618
-0.34516403 0.19160879 -0.11267234 0.35225922 -0.09228311 -0.8988242 -0.8577908 -0.5602844
-0.058559097 0.055599064 -0.10286204 0.024267122 -0.10040686 0.11488076 0.019731602 -0.026877677
0.007089297 -0.15919131 -0.026141202 -0.18087351 -0.21159227 0.104384385 0.14858785 -0.18167531
-0.06745089 0.08287408 -0.055423886 0.23622565 0.0363025 -0.46994653 -0.1310418 -0.65537876
1.6975067 0.69329077 -0.19888099 0.010726289 -0.4620101 0.32852077 -0.18761402 -0.38808697
0.015809655 -0.8465807 -0.17854704 0.02958307 0.7247719 0.30284387 -0.16285798 0.25014305
-0.45421708 -0.04220529 -0.09443652 -0.28447673 -0.22510117 -0.03557732 0.32357714 -0.17826301
0.8172181 0.4713507 0.44300202 0.09740519 -0.5239321 0.43011698 0.08821773 -0.44498092
0.0515802 0.33326182 0.6480886 1.4227396 0.00163013 0.0063742953 -0.0013295923 -0.009708135
00000000: 71bc 91bb bf8c b5bb 1c45 2d3a fe9e 463c
00000010: 23c9 7d3c 909f 1e3c f6a9 153c e5f6 183c
00000020: d9a3 e53c f477 1d3d 60ec e43c d22d 023d
00000030: e5c2 893c 8fc5 c33c fa16 2b3d 457e 153d
00000040: eedd 523d fb74 453d 0c2f a33c 8c3e 233d
00000050: 9f33 253d 49e5 583d 5cca 033b 8deb 383d
00000060: 2717 7e3c 6c97 803c c23d b83c 98f5 4d3c
00000070: cfbd 0b3c 95d9 3cbb 37f2 06bc 1f83 31bc
00000080: 96b4 8dbb ee99 da3c 1bcc 373c 7338 853c
00000090: 43b2 1a3e c34b 41be c626 4abe d594 0cbf
000000a0: b36a 93be 5f3f 043e 60a1 61be 50b9 46bf
000000b0: 0cc0 b83d 2411 8d3f e8c3 503f 0be3 93bf
000000c0: 1564 943e c906 cebe 302f 8b3c 818b 2dbe
000000d0: 0d52 f13d 193a fd3d 8fd2 613d c7a3 11be
000000e0: be0e 74be 9fc5 a13e aa1d d03e 8868 ccbe
000000f0: d812 f83f 50a4 ed3e 7711 963e 514b 85be
00000100: 9782 a6bc dc93 5b3f 82d7 1abd 5c8c 14be
00000110: d55e 54be 938c 8d3f df46 9c3f 2ef7 c83d
00000120: 0172 f7be d38c 36be 4b70 41be 29d3 883e
00000130: 063e c1bd 32f9 153f 2fb0 b1bc 0200 e43d
00000140: 1809 06bd e3ef 173f b6e6 853f 3f2f 88be
00000150: aa6a cfbe 255f 533d 91a6 403e 402c ec3e
00000160: 40c6 02be f1b8 a93e 3e8f da3d 96ba 203e
00000170: 3dbd b53e fff1 a83e 8213 d93e b17b c13c
00000180: a7ae febe df9f c2be f045 82be 7494 8d3e
00000190: 067c ecbd ffcd 993e 7107 b7bd c443 07be
000001a0: efc8 2a3e f9e3 513f d47e 773f da54 babe
000001b0: 5a2e 24ba 51f8 c5bb 36e5 ab3a f928 123c
000001c0: 6ab6 693c da45 de3b 25f5 bc3b 3270 fa3b
000001d0: 6d9d c53c a56c 003d 44b6 c93c 7d6e d43c
000001e0: b33f 8a3c 94ab b13c 1db3 1d3d 5578 023d
000001f0: bd09 423d e0b3 243d b3fe 883c 531f 0c3d
00000200: ee21 0f3d fca7 303d 7afa 873b 4fba 183d
00000210: 9a94 513c 1a72 723c 81c0 9c3c 41eb 003c
00000220: 716c 083c b595 9dbb ab5d d2bb de6a f8bb
00000230: 5ff6 12bb 1c2f 9c3c 1270 3f3c 5e53 613c
00000240: 40a8 e9be df3d 0cbf d082 58bc 172d b5bd
00000250: ab28 e5be f312 2e3e 76ac cbbe 246c 5d3e
00000260: 8601 64bd fec0 003f 7fd9 973f 5d5c 563f
00000270: 919a 99bd dd92 0fbe e2f7 fcbd 4e3b 8abe
00000280: 4eaf 463e 6d59 55be 0cd3 e03c 88c8 c3bc
00000290: c535 003e 151e 823e 0c63 683f d880 6f3f
000002a0: 97ee 3dbf f4bb 16bf 06bc 25be ef08 a33e
000002b0: dee1 5bbe ebcc aebe 7dda 34bd 1656 8bbe
000002c0: 861b b8bd 6828 403f dd89 a93f 8539 f83f
000002d0: 8b13 c1be 72fc b4be adc5 413e cc53 053d
000002e0: 57b9 b0be 1835 443e c1c0 e6bd 525b b43e
000002f0: edfe bcbd 5819 66bf 2e98 5bbf cc6e 0fbf
00000300: aadb 6fbd d8bb 633d 55a9 d2bd d8cb c63c
00000310: 1da2 cdbd 9b46 eb3d 2ba4 a13c 932e dcbc
00000320: 554d e83b 0c03 23be 1326 d6bc e836 39be
00000330: a5ab 58be 7bc7 d53d 6a27 183e 1809 3abe
00000340: b123 8abd e3b9 a93d 2804 63bd 23e5 713e
00000350: eeb1 143d d59c f0be d22f 06be e7c6 27bf
00000360: e647 d93f 817b 313f 75a7 4bbe 51bd 2f3c
00000370: 968c ecbe e033 a83e e41d 40be 56b3 c6be
00000380: 4083 813c 83b9 58bf 09d5 36be 3258 f23c
00000390: a78a 393f 5a0e 9b3e 3ec4 26be c012 803e
000003a0: 248f e8be 74df 2cbd ef67 c1bd efa6 91be
000003b0: ec80 66be 86b9 11bd e7ab a53e 948a 36be
000003c0: 3535 513f e154 f13e 29d1 e23e 5f7c c73d
000003d0: 6a20 06bf 4b38 dc3e 7fab b43d 8ad4 e3be
000003e0: c345 533d 4ba1 aa3e 22e9 253f 551c b63f
000003f0: 16aa d53a 77df d03b b745 aeba df0e 1fbc

conv_block_1.0.bias f4 [10]
-0.35092 -2.0246933 -1.9248976 -0.30372837 -2.1399148 2.1964982 -2.2047071 0.3205203
-2.2651536 0.46115753
00000000: c9ab b3be 9394 01c0 0b63 f6bf 4982 9bbe
00000010: 5df4 08c0 6d93 0c40 ec19 0dc0 3d1b a43e
00000020: 47f8 10c0 d71c ec3e

conv_block_1.1.weight f4 [1, 10, 2, 14]
8.810955e-05 -0.001859092 -0.0054953233 -0.000960023 -0.0018035189 -0.0059578945 -0.0024812042 -0.003302876
-0.011059408 -0.0056543318 -0.0015974747 -0.0048193866 -0.0042320224 -0.001448995 0.005472131 -0.0016306355
-0.00415072 0.0059804823 0.003923226 -0.00059379725 0.008319303 0.012537548 0.0035282231 0.0047669024
0.007927197 -0.0023067966 -0.00081778446 0.0022443766 -0.31420824 -0.7003676 0.23538704 0.15762132
0.23747474 0.02514502 -0.030130602 0.238233 -0.019633992 -0.23576935 0.0065124575 1.0490946
0.5937488 -0.55835444 -0.9016467 -1.5064052 0.02385927 0.45165902 0.61729187 0.08614192
0.5575683 0.18145755 -0.035736784 0.19390713 -0.14266989 0.30805394 -0.4744568 -1.0111619
0.018097308 0.12834534 0.29713205 -0.37072977 -0.1821156 -0.089703456 0.15676057 0.13841431
-0.42846295 0.27912337 -0.65726715 0.6527141 0.035098605 -0.5263765 0.8148775 -0.21282397
0.31980732 -0.3453244 -0.10529494 -0.08984803 -0.52382404 0.40532607 -0.27952954 0.42025435
-0.28941527 0.6183185 0.12633994 -0.7386479 0.00041425248 -0.0013605955 -0.005375828 -0.0012149838
-0.001343249 -0.0060199867 -0.0024524028 -0.003640358 -0.011026381 -0.00592698 -0.0019122682 -0.0048587676
-0.0039575794 -0.0016295566 0.00592361 -0.001478735 -0.004236755 0.005136383 0.0041462346 -0.0016561653
0.007865703 0.011738608 0.0034079258 0.0043598083 0.007661526 -0.002734734 -0.0012235316 0.0017570015
1.1402314 0.14784439 -0.36587423 -0.35458368 -0.07153896 -0.54046786 0.19065362 0.4671065
-0.725082 1.0617498 0.13218068 -1.0432599 -1.1900543 -1.4634941 1.8459213 0.8081451
0.8739191 0.49379885 -0.45452565 0.63594574 -0.31713948 -0.32912764 0.2567522 0.37568405
0.9868874 -1.0135334 -2.091208 -1.9095882 1.3106511 1.6768141 0.83855027 0.22576216
0.22542344 -0.014464912 0.9454906 0.5198896 -0.8119458 0.66898143 -0.52782077 0.25531036
0.75000495 1.8484156 -0.049773782 1.2500453 0.77121097 0.20380147 0.7450455 -0.038465522
1.0338681 0.81241435 0.12347476 1.3696411 -0.063365884 0.8011952 0.6689019 1.0609609
-1.8918312 -0.98618823 -1.0622867 0.8656666 -0.36005428 -0.34908083 -0.20148438 -0.82617146
-0.15513769 -0.49637032 -0.6103071 0.23683858 -0.46450856 0.70172507 -1.1844472 -0.5421971
-0.72530943 0.57001275 -0.7257211 -0.42518252 0.060378768 -0.83807826 -0.18505496 0.033199627
-0.05821 -0.98258317 -1.73507 -1.2453583 -0.00025873334 0.0015709935 0.0053634164 0.0011913689
0.0014538559 0.0061046425 0.0023796023 0.003548671 0.0110707395 0.0058787502 0.0017403493 0.0049187173
0.003975017 0.0016133 -0.0057583908 0.0014932394 0.0042102756 -0.005389545 -0.0041807564 0.0014055836
-0.008174322 -0.011973596 -0.0035300038 -0.0044229412 -0.00789194 0.002662993 0.0010671534 -0.0019476839
-0.03137363 0.023420181 -0.8181686 -0.23703337 -0.46191263 -0.45341283 -0.4938552 -0.5610868
-0.84025705 -0.6687686 0.36934793 -1.4613737 -2.1929402 -3.0732596 -0.3460797 -0.40520585
0.10812807 -0.084386885 -0.35987794 -0.3019868 -0.44210237 -0.0045378846 -0.4119285 -0.32017967
0.24004023 -0.5836302 -1.1542393 -1.6560324 0.0007808511 0.0028167006 0.0051734876 0.00068981055
00000000: 74c7 b838 c7ac f3ba 1d12 b4bb 0eaa 7bba
00000010: 0d64 ecba 713a c3bb b39b 22bb 1075 58bb
00000020: 8532 35bc f947 b9bb 5b62 d1ba f2eb 9dbb
00000030: c7ac 8abb 34ec bdba 904f b33b 0cbb d5ba
00000040: c302 88bb ecf7 c33b 688e 803b 0fa9 1bba
00000050: b04d 083c 4a6a 4d3c c339 673b ad33 9c3b
00000060: 13e1 013c a02d 17bb 9660 56ba 6416 133b
00000070: e7df a0be 4b4b 33bf 4d09 713e 7c67 213e
00000080: 942c 733e eefc cd3c 74d4 f6bc 5af3 733e
00000090: 77d7 a0bc 856d 71be 7466 d53b bb48 863f
000000a0: ecff 173f 51f0 0ebf 51d2 66bf e3d1 c0bf
000000b0: 8474 c33c da3f e73e d706 1e3f 2d6b b03d
000000c0: ccbc 0e3f 02d0 393e bc60 12bd 978f 463e
000000d0: 0e18 12be 3fb9 9d3e 00ec f2be c16d 81bf
000000e0: ce40 943c f66c 033e b121 983e 4bd0 bdbe
000000f0: 837c 3abe 72b6 b7bd d885 203e 7bbc 0d3e
00000100: 7f5f dbbe 42e9 8e3e a942 28bf 4518 273f
00000110: 8ec3 0f3d 9cc0 06bf d09b 503f 87ee 59be
00000120: c9bd a33e 5cce b0be e0a4 d7bd 3e02 b8bd
00000130: 5519 06bf e686 cf3e 7f1e 8fbe 942b d73e
00000140: 3d2e 94be 1f4a 1e3f 425f 013e 0718 3dbf
00000150: 0730 d939 0256 b2ba b727 b0bb 1740 9fba
00000160: f50f b0ba 4f43 c5bb 7eb8 20bb 1393 6ebb
00000170: fea7 34bc 1d37 c2bb 13a5 faba 4c36 9fbb
00000180: 95ae 81bb d996 d5ba d81a c23b 1dd2 c1ba
00000190: 7ad4 8abb 1b4f a83b 23dd 873b b013 d9ba
000001a0: 26df 003c 4a53 403c 8257 5f3b b9dc 8e3b
000001b0: 8a0d fb3b 3939 33bb e85e a0ba 304b e63a
000001c0: 1af3 913f 8564 173e de53 bbbe fe8b b5be
000001d0: 0583 92bd 1a5c 0abf b43a 433e 9528 ef3e
000001e0: f99e 39bf 6be7 873f 5f5a 073e 8a89 85bf
000001f0: b353 98bf c653 bbbf 2647 ec3f 99e2 4e3f
00000200: 2ab9 5f3f 34d3 fc3e 96b7 e8be 57cd 223f
00000210: 1b60 a2be 6b83 a8be 0675 833e a959 c03e
00000220: a7a4 7c3f 76bb 81bf 5ad6 05c0 636d f4bf
00000230: 6ac3 a73f d8a1 d63f 3bab 563f 322e 673e
00000240: 67d5 663e 3dfe 6cbc ac0b 723f 7c17 053f
00000250: aedb 4fbf 5e42 2b3f 431f 07bf 0ab8 823e
00000260: 5300 403f e298 ec3f 98df 4bbd 7c01 a03f
00000270: 156e 453f 55b1 503e 4dbb 3e3f 068e 1dbd
00000280: ca55 843f 63fa 4f3f 56e0 fc3d 6650 af3f
00000290: f9c5 81bd 211b 4d3f 283d 2b3f 91cd 873f
000002a0: 8627 f2bf d576 7cbf 03f9 87bf 549c 5d3f
000002b0: 0959 b8be b9ba b2be ec51 4ebe f97f 53bf
000002c0: 6adc 1ebe 4024 febe 163d 1cbf d085 723e
000002d0: 11d4 edbe 41a4 333f f79b 97bf 6ecd 0abf
000002e0: e1ad 39bf 5bec 113f dcc8 39bf 86b1 d9be
000002f0: ba4f 773d 4c8c 56bf 0c7f 3dbe 55fc 073d
00000300: 9c6d 6ebd 928a 7bbf c616 debf e767 9fbf
00000310: 9aa6 87b9 cbe9 cd3a 99bf af3b b527 9c3a
00000320: 4f8f be3a 7409 c83b 1af3 1b3b d290 683b
00000330: 0c62 353c 88a2 c03b 6f1c e43a 312d a13b
00000340: dc40 823b 5d75 d33a e2b0 bcbb cdb8 c33a
00000350: 5af6 893b c89a b0bb bafe 88bb 8f3b b83a
00000360: 97ed 05bc e72c 44bc a357 67bb 52ee 90bb
00000370: 324d 01bc 9c85 2e3b badf 8b3a 6d49 ffba
00000380: a381 00bd aedb bf3c 7f73 51bf e0b8 72be
00000390: d07f ecbe ba25 e8be 97da fcbe 62a3 0fbf
000003a0: 161b 57bf 6b34 2bbf 2c1b bd3e 4b0e bbbf
000003b0: 2259 0cc0 49b0 44c0 5c31 b1be 2477 cfbe
000003c0: 4072 dd3d 08d3 acbd ec41 b8be 049e 9abe
000003d0: 3e5b e2be 89b2 94bb 4be8 d2be 97ee a3be
000003e0: 1bcd 753e ca68 15bf 1dbe 93bf dff8 d3bf
000003f0: 08b2 4c3a 6598 383b 5c86 a93b 67d4 343a
